best_mnist_model.pth (torch, 907750 bytes, 16 tensors)

conv1.weight f4 [32, 1, 3, 3]
0	0x3e030ba1	0.12797405
1	0xbde2ca90	-0.11073792
2	0xbe02305e	-0.12713763
3	0xbc8a31a5	-0.016869375
4	0xbe874d6f	-0.26426265
5	0x3d5de02d	0.05416887
6	0xbe6c1c5d	-0.23057695
7	0xbddd867b	-0.10816666
8	0x3e07bcd1	0.13255621
9	0x3e3d7fe4	0.18505818
10	0xbdc21225	-0.09476117
11	0x3e755670	0.23958755
12	0x3bc0d8b5	0.0058852085
13	0x3b3d6cfe	0.0028904076
14	0xbc15baa1	-0.009138734
15	0xbd5c405f	-0.053772327
16	0x3e24c249	0.16089739
17	0x3e03c615	0.12868531
18	0xbe4341f0	-0.19068122
19	0xbe011fd4	-0.12609798
20	0x3e772a3f	0.2413721
21	0xbe1365d4	-0.14394313
22	0xbdb2926e	-0.087193355
23	0x3e86fa47	0.2636282
24	0x3da398a0	0.07988095
25	0xbd03582f	-0.03206652
26	0x3d879e27	0.06621962
27	0x3e05e933	0.1307724
28	0xbb966f8b	-0.0045909337
29	0xbe5a92a6	-0.21345004
30	0x3e263ce7	0.1623417
31	0xbe0ca9f7	-0.13736711
32	0xbdf55353	-0.119787835
33	0x3ba4e515	0.0050321915
34	0xbe0cfdb3	-0.13768654
35	0xbcb0468b	-0.021518013
36	0x3c98fbe3	0.018674796
37	0xbd33f1c7	-0.04393175
38	0x3c1645f1	0.009171949
39	0x3d8a105c	0.067414016
40	0xbd6d5554	-0.057942703
41	0xbdcfb6e1	-0.10142303
42	0x3eaa8bc8	0.3330977
43	0xbdae77a9	-0.08518917
44	0xbe2e0eef	-0.16997884
45	0x3b8feea2	0.004392461
46	0xbe47aad1	-0.19498755
47	0xbd6a6f26	-0.057234906
48	0x3d8cd67f	0.068768494
49	0x3df0b0bd	0.1175246
50	0x3dc874f8	0.09787935
51	0xbd04ac31	-0.032390777
52	0xbe11f404	-0.14253241
53	0xbd96a741	-0.0735612
54	0x3e02c85b	0.12771742
55	0xbd90776b	-0.07054027
56	0x3dcb46b3	0.09925594
57	0x3ded48f5	0.11586181
58	0xbe1219a9	-0.14267601
59	0x3e0d883b	0.13821499
60	0x3e6b0c6f	0.22953962
61	0x3da333a4	0.07968834
62	0x3e768638	0.24074638
63	0x3e676997	0.22598873
64	0x3d04bd97	0.03240737
65	0x3988b5ac	0.00026075298
66	0xbe249442	-0.16072181
67	0xbe8181f2	-0.25294453
68	0x3c81ef6c	0.015861236
69	0x3cc0bb28	0.023526743
70	0x3d5cd45a	0.05391345
71	0x3d9e2dd9	0.077235885
72	0xbe257c0b	-0.161606
73	0xbe785a3e	-0.24253175
74	0xbe404ca4	-0.18779236
75	0x3db1c368	0.08679849
76	0x3d7d6f04	0.06187345
77	0x3d533f66	0.051574133
78	0x3daaed1a	0.08346005
79	0x3dfab121	0.12240816
80	0x3e2d9d38	0.16954505
81	0xbe7b352b	-0.24532
82	0xbdc87a49	-0.09788949
83	0xbe61b349	-0.22041048
84	0xbd5e0552	-0.054204293
85	0xbd9790fe	-0.07400702
86	0xbde635ee	-0.11240755
87	0x3e81a2a2	0.2531939
88	0x3cd22a6e	0.025654998
89	0xbc8bec99	-0.017080592
90	0xbdc5f659	-0.09666128
91	0xbe8753aa	-0.26431018
92	0x3cfbb60d	0.030726457
93	0x3e21ba48	0.15793717
94	0xbe438b35	-0.19096072
95	0xbde2d199	-0.11075134
96	0x3df009c7	0.11720615
97	0xbd7ddc7f	-0.06197786
98	0xbe8e8c92	-0.27841622
99	0xbc01ab96	-0.007914444
100	0xbd3cf288	-0.046129733
101	0xbe21402e	-0.15747139
102	0xbe302012	-0.17199734
103	0xbde20d03	-0.11037638
104	0xbdd5f8cd	-0.104478456
105	0x3d63b45f	0.055591937
106	0x3dd853d5	0.10562865
107	0x3e09e6a6	0.13466892
108	0xbb1bf503	-0.0023797161
109	0xbd1b7544	-0.03795363
110	0xbe05ab5e	-0.13053653
111	0xbdd90a2b	-0.105976425
112	0x3c6339ad	0.013868731
113	0x3e033e77	0.12816797
114	0xbdafa643	-0.08576634
115	0x3e61a7d1	0.22036673
116	0xbe4a665b	-0.19765608
117	0x3ca4fe67	0.02014084
118	0x3d15da40	0.036585093
119	0x3d1499f5	0.036279637
120	0x3ddd157d	0.10795114
121	0xbe326f6b	-0.17425315
122	0x3d8d2b13	0.068929814
123	0x3e0b6df3	0.13616161
124	0xbea278ba	-0.31732732
125	0x3e158cae	0.14604446
126	0xbdb7b280	-0.08969593
127	0xbd782e5d	-0.06059109
128	0xbe078c08	-0.13237011
129	0x3e2a7d08	0.16649258
130	0xbd59d5ed	-0.05318253
131	0xbe54c3dd	-0.20777841
132	0x3da17428	0.07883483
133	0x3e04d1ab	0.12970607
134	0xbd02191d	-0.03176223
135	0x3e5aaaa7	0.21354161
136	0x3d686190	0.056733668
137	0xbd062231	-0.03274745
138	0x3c9ee3c2	0.019395713
139	0x3d3cf958	0.04613623
140	0xbcb765f7	-0.022387488
141	0x3dee0f0f	0.11623966
142	0x3d839c22	0.06426264
143	0x3e238b4b	0.15971105
144	0x3dc7ab30	0.09749448
145	0x3dfc117c	0.123080224
146	0x3dcbc126	0.099489495
147	0x3e0bea0b	0.13663499
148	0x3ddc6fbc	0.10763499
149	0xbd54bff2	-0.051940866
150	0xbdace7d3	-0.084426545
151	0xbe2526f0	-0.16128135
152	0xbe81492e	-0.25251144
153	0x3d7a91f4	0.061174348
154	0x3e0b5ce7	0.13609658
155	0x3e0b9231	0.13629986
156	0xbde93dd5	-0.11388747
157	0x3cde5634	0.027140714
158	0x3daea51a	0.085275844
159	0xbe104f5d	-0.14092775
160	0xbe353ad6	-0.17698225
161	0xbe193b76	-0.14964089
162	0xb822c380	-3.8805883e-05
163	0x3dae912a	0.085237816
164	0x3d6b0b71	0.05738396
165	0xbe0e0207	-0.13867961
166	0x3da4b2a6	0.08041887
167	0x3d9a4d82	0.07534315
168	0xbe8d2c8c	-0.2757305
169	0xbbfa54e4	-0.0076395143
170	0x3e4ad12c	0.19806355
171	0x3d23c311	0.03998095
172	0x3e14e0b6	0.14538845
173	0xbe00add9	-0.12566318
174	0x3c87b95d	0.01656788
175	0x3e60487a	0.21902648
176	0xbe744e36	-0.2385796
177	0x3d87a361	0.06622959
178	0x3d1a9237	0.037737098
179	0xbe03ebd4	-0.1288293
180	0x3c4b3c8d	0.012404573
181	0x3e5f48fa	0.21805182
182	0xbe64ddb0	-0.22350192
183	0xbd8b089b	-0.06788751
184	0xbd16a650	-0.0367797
185	0x3e101733	0.1407135
186	0x3c9bc4c8	0.019014731
187	0x3d3f0f36	0.046645366
188	0x3bf7ea3c	0.0075657647
189	0xbdc8ef53	-0.098112725
190	0xbe4f00d4	-0.2021516
191	0xbe218ecc	-0.15777129
192	0xbe607456	-0.21919379
193	0x3cdfc281	0.027314426
194	0x3df489c7	0.119403414
195	0xbe0b8bbd	-0.13627525
196	0x3db4cca2	0.08828093
197	0x3db55cc9	0.08855588
198	0xbe668958	-0.2251333
199	0x3d18e9f5	0.037332494
200	0x3d20f272	0.039293714
201	0xbe6a1854	-0.22860843
202	0x3e31be51	0.17357756
203	0xbcc42b38	-0.02394639
204	0xbcef9343	-0.029245025
205	0x3d86a17b	0.06573769
206	0x3de1e902	0.11030771
207	0x3cdf3eb5	0.02725158
208	0xbd98c15b	-0.07458755
209	0xbe1b4ada	-0.15165272
210	0x3e1ea591	0.15492846
211	0x3b85111f	0.004060879
212	0xbe3e21da	-0.18567601
213	0xbb28d295	-0.0025760282
214	0x3e1a9a7b	0.15097992
215	0x3e46e9fc	0.19425195
216	0x3e05aed1	0.13054968
217	0xbceb4645	-0.02872003
218	0xbe3c63df	-0.18397473
219	0xbc32567c	-0.010884877
220	0x3d85be85	0.06530479
221	0xbdb4ea28	-0.08833724
222	0xbe7bc1ea	-0.24585691
223	0x3d811f1a	0.0630476
224	0x3e098152	0.13428238
225	0xbe3ed6e2	-0.18636659
226	0xbbc9bc4e	-0.006156481
227	0x3e45b8f2	0.19308832
228	0xbda69722	-0.08134295
229	0xbe657262	-0.22406915
230	0xbb0dc029	-0.002162943
231	0x3e08b9d5	0.1335214
232	0xbda9f955	-0.082995094
233	0xbdc1cebf	-0.09463262
234	0x3d334702	0.04376889
235	0x3e6ad9d4	0.22934657
236	0x3d3053d6	0.043048702
237	0xbd9a4cea	-0.075342014
238	0xbdf0ee36	-0.11764185
239	0xbd913abe	-0.07091282
240	0xbd6bfcb2	-0.057614036
241	0xbe63be7f	-0.22240637
242	0xbe10d44e	-0.14143488
243	0x3b374602	0.0027965312
244	0xbb3ddb16	-0.0028969697
245	0x3dcc0cdc	0.0996339
246	0xbe0762d6	-0.13221297
247	0xbe29a51e	-0.16566893
248	0x3e5b80c5	0.2143584
249	0xbe96abc7	-0.2942793
250	0x3a2725af	0.000637616
251	0x3c6f032f	0.014588161
252	0xbe820ca9	-0.25400284
253	0xbdfce550	-0.123484254
254	0xbdfadfe5	-0.12249736
255	0xbd987858	-0.07444829

conv1.bias f4 [32]
0	0xbe8cae6c	-0.27476823
1	0x3e5811e0	0.21100569
2	0x3dd39bbe	0.1033244
3	0xbec22f0c	-0.3792652
4	0xbc054f29	-0.008136549
5	0x3ded2580	0.11579418
6	0x3e1c86a4	0.15285736
7	0xbd0073c7	-0.031360414
8	0xbe0b0d18	-0.13579214
9	0xbe54ecf6	-0.20793518
10	0xbdeb94cd	-0.11502991
11	0x3e7202df	0.23633908
12	0xbda9abda	-0.08284731
13	0xbd0050a3	-0.0313269
14	0xbe187766	-0.14889297
15	0x3e8e8765	0.27837673
16	0x3e1ad0e3	0.15118746
17	0x3c4e08da	0.012575353
18	0x3c0fc20d	0.008774293
19	0x3e9c2ef0	0.3050456
20	0xbdd82902	-0.105546966
21	0xbea8f798	-0.330014
22	0xbe0b65cc	-0.13613051
23	0x3dab53b9	0.08365578
24	0x3ed25160	0.4107771
25	0xbe4b30ad	-0.19842787
26	0xbd6b4ce2	-0.057446368
27	0xbc720483	-0.0147715835
28	0xbcba75f0	-0.022761315
29	0x3d3b1e52	0.045683213
30	0x3c8f48b2	0.017490719
31	0xbe741691	-0.23836733

bn1.weight f4 [32]
0	0x3fccd3c4	1.6002126
1	0x3eb96738	0.36211562
2	0x3f805157	1.0024823
3	0x3fa74c7b	1.3070215
4	0x3f6b9344	0.92021585
5	0x3f781d1b	0.9691941
6	0x3f0cb178	0.54958296
7	0x3f5c63a6	0.8608955
8	0x3f72c149	0.9482618
9	0x3f72a738	0.94786406
10	0x3fc3c3f7	1.5294179
11	0x3f95a96d	1.169233
12	0x3f65d441	0.89777
13	0x3f46d1a2	0.77663624
14	0x3f7174d2	0.9431888
15	0x3f146392	0.5796443
16	0x3f9cd436	1.2252262
17	0x3fa67cc4	1.3006825
18	0x3f6ec8e5	0.9327529
19	0x3f7c0f82	0.98461163
20	0x3f0eb887	0.55750316
21	0x3fcbb7bc	1.5915446
22	0x3f71641f	0.942934
23	0x3f533848	0.82507753
24	0x3f411915	0.754289
25	0x3fd1769c	1.6364322
26	0x3f422740	0.7584114
27	0x3f64460f	0.891694
28	0x3f7501f9	0.95706135
29	0x3fc0891d	1.5041844
30	0x3f40f01f	0.75366396
31	0x3f2e0126	0.679705

bn1.bias f4 [32]
0	0xbe22f8c1	-0.15915205
1	0xbe49400d	-0.1965334
2	0xbe76375e	-0.24044558
3	0xbdc12ef9	-0.094327874
4	0xbe2a20f7	-0.16614138
5	0xbe9c9a83	-0.30586633
6	0xbf11c6e0	-0.56944084
7	0xbdbbc0e3	-0.091676496
8	0xbbc13ad6	-0.0058969064
9	0xbe95275e	-0.29131597
10	0xbde5463d	-0.111950375
11	0xbea0148c	-0.31265676
12	0xbe837146	-0.25672358
13	0xbdf82a90	-0.12117493
14	0xbe85c792	-0.26128823
15	0xbed707b3	-0.41998062
16	0xbe1da876	-0.15396294
17	0x3b80a913	0.003926405
18	0xbea27482	-0.31729513
19	0xbe0125f8	-0.1261214
20	0xbedbecca	-0.42954093
21	0xbded6036	-0.115906164
22	0xbe8b6fde	-0.27233785
23	0xbed36b0d	-0.4129261
24	0x3dc1c702	0.09461786
25	0xbdc88255	-0.09790484
26	0xbe896d05	-0.26840988
27	0xbe8d1b04	-0.27559674
28	0xbdf5aac6	-0.11995463
29	0xbe2a8e02	-0.16655734
30	0xbf0e5af1	-0.55607516
31	0xbf17901e	-0.5920428

bn1.running_mean f4 [32]
0	0x3dd25791	0.10270608
1	0xbe3b2bcf	-0.1827843
2	0x3d5ed8b2	0.054405876
3	0xbe149172	-0.14508608
4	0x3c618e52	0.013766842
5	0x3e86804f	0.26269767
6	0xbed4b208	-0.41542077
7	0xbd2ea03a	-0.042633273
8	0xbdfe8879	-0.12428374
9	0x3e2d79f7	0.16941057
10	0x3ebda0f3	0.37036857
11	0x3ee4bf09	0.44676998
12	0x3d616f1e	0.05503761
13	0xbd95c005	-0.073120154
14	0xbc0f91e4	-0.00876281
15	0xbe1d371c	-0.15353054
16	0x3e100243	0.14063363
17	0x3dd92185	0.106020965
18	0xbd30f87f	-0.043205734
19	0x3e916f07	0.2840502
20	0xbe3e6224	-0.18592125
21	0x3c2fc2d6	0.010727605
22	0xbda3bc8d	-0.079949476
23	0x3b3169c3	0.0027071096
24	0x3f06815a	0.52541125
25	0x3d3a876d	0.04553931
26	0x3e4b88ea	0.19876447
27	0x3e2c722a	0.16840425
28	0x3d401c56	0.046902023
29	0x3ed0e616	0.40800542
30	0xbd192cab	-0.037396114
31	0xbeaedfc7	-0.34155104

bn1.running_var f4 [32]
0	0x3deefa13	0.116687916
1	0x3db8f11a	0.090303615
2	0x3d88284c	0.06648311
3	0x3d9828d8	0.07429665
4	0x3d3826f8	0.04495904
5	0x3c91d6ae	0.017802563
6	0x3e3b6007	0.1829835
7	0x3c6a140e	0.014287008
8	0x3d91d0a8	0.07119876
9	0x3e103e09	0.14086165
10	0x3e3d0aad	0.18461104
11	0x3d5ea5e9	0.054357443
12	0x3c79a681	0.0152374515
13	0x3c642f11	0.013927237
14	0x3d519df6	0.051176034
15	0x3de4f373	0.11179247
16	0x3d8027fe	0.06257628
17	0x3d6f8dcf	0.05848485
18	0x3d5a705b	0.053329807
19	0x3d1cbfc3	0.038268816
20	0x3c36abc8	0.011149354
21	0x3ddebc66	0.10875778
22	0x3d22448c	0.039616153
23	0x3d293fd5	0.04132064
24	0x3cbe3829	0.023220139
25	0x3d8187bd	0.06324718
26	0x3db369a9	0.087603875
27	0x3d9f5445	0.07779745
28	0x3d849885	0.06474403
29	0x3df16be7	0.11788159
30	0x3cb0a7b8	0.02156435
31	0x3cc76239	0.024338828

conv2.weight f4 [64, 32, 3, 3]
0	0x3c836097	0.016037269
1	0x3e82c941	0.2554417
2	0x3e87563d	0.26432982
3	0xbdfc7d38	-0.12328571
4	0x3db7356c	0.08945736
5	0x3de47155	0.11154429
6	0xbd9b896a	-0.07594569
7	0x3e55e295	0.20887215
8	0x3e723ef6	0.2365683
9	0x3de52d11	0.11190236
10	0x3da9617a	0.08270545
11	0xbd867257	-0.06564777
12	0xbd16cb20	-0.03681481
13	0xbd3622ee	-0.044466905
14	0xbdeef15a	-0.11667128
15	0xbda27d7c	-0.079340905
16	0xbe094b5a	-0.1340765
17	0xbd1be163	-0.038056742
18	0x3d348782	0.044074543
19	0x3d51ebc3	0.05125023
20	0x3d6be3b5	0.057590205
21	0x3ce0c74e	0.027438786
22	0x3dfeba14	0.12437835
23	0x3d0a2600	0.033727646
24	0x3d85ad40	0.065271854
25	0x3dc36556	0.09540813
26	0x3e319792	0.17342976
27	0x3e9b980d	0.30389443
28	0x3dd48057	0.103760414
29	0x3d8c9959	0.06865186
30	0x3d9cdbe7	0.076591305
31	0x3c7a45a7	0.0152753955
32	0x3e5ea5d6	0.21742949
33	0xbcb3647d	-0.021898502
34	0x3e456889	0.19278158
35	0x3e902a3c	0.28157222
36	0x3d1d5dc6	0.038419507
37	0x3e239efa	0.15978613
38	0x3d97d1e2	0.07413079
39	0x3c853df6	0.016264897
40	0x3e3970fe	0.1810951
41	0x3e71497f	0.23563193
42	0xbe0a6ec3	-0.13518815
43	0xbdf85549	-0.12125642
44	0x3cca293a	0.024677861
45	0x3e0ca9aa	0.13736597
46	0xbcc150dc	-0.023598127
47	0xbdd0b488	-0.101906836
48	0xba468e60	-0.0007574316
49	0xbdbadbde	-0.091239676
50	0x3d1c4bc8	0.038158208
51	0xbded8ce0	-0.115991354
52	0x3dbf70ee	0.093477115
53	0x3c1df42a	0.009640733
54	0xbbd31c43	-0.006442578
55	0x3c5a1058	0.013309561
56	0x3a5b21bb	0.0008359213
57	0x3d25fc2a	0.040523686
58	0xbd8ca88a	-0.06868084
59	0x3d2f78fe	0.042839997
60	0xbe0bbb10	-0.13645577
61	0xbdcdc063	-0.100464605
62	0xbdc3b8ce	-0.09556733
63	0x3d947760	0.072493315
64	0x3ddd602a	0.108093575
65	0x3e84d351	0.25942472
66	0xbd9926cb	-0.07478102
67	0xbd3a777d	-0.04552411
68	0xbe0d2041	-0.13781835
69	0xbe477863	-0.19479518
70	0xbdecd593	-0.115641735
71	0xbe5de9c1	-0.21671201
72	0xbcb74f5d	-0.02237671
73	0xbd0dae84	-0.03459026
74	0x3a112785	0.00055372
75	0xbe2fd70f	-0.17171882
76	0xbe18069b	-0.1484627
77	0xbdc48720	-0.095960855
78	0xbe4d15a8	-0.20027792
79	0xbe74d02d	-0.23907538
80	0xbe244f5b	-0.16045897
81	0xbe9fa633	-0.31181487
82	0xbe388423	-0.18019156
83	0xbc6b6717	-0.01436784
84	0x3d2dce28	0.042432934
85	0x3cf0cc84	0.029394396
86	0xbdd8bd7e	-0.10583018
87	0xbe373e84	-0.17894942
88	0xbe1aba1c	-0.15110058
89	0xbe3452c8	-0.17609704
90	0x3d3de82a	0.046363987
91	0xbdcf8085	-0.10131935
92	0x3d9cf455	0.0766379
93	0x3e1b1bd0	0.15147328
94	0x3e133c58	0.14378488
95	0x3e769e81	0.24083902
96	0x3d9e4da7	0.07729655
97	0x3df5e36a	0.120062664
98	0x3e36380c	0.17794818
99	0x3d912341	0.07086802
100	0x3cb1ebb2	0.021718834
101	0xbdb2148c	-0.08695325
102	0xbe2b6164	-0.1673637
103	0xbe3d2191	-0.18469836
104	0x3b2d1c67	0.0026414634
105	0xbe5f5404	-0.21809393
106	0xbe780ef5	-0.24224456
107	0xbe94c7cd	-0.29058686
108	0x3d8063c3	0.06269028
109	0xbe100f92	-0.1406844
110	0xbd52da71	-0.051477853
111	0xbcad4e36	-0.021155458
112	0xbe458f6f	-0.19292997
113	0xbcdaf3aa	-0.026727516
114	0xbd3273bf	-0.043567415
115	0xbe58e236	-0.21180043
116	0xbe628cab	-0.22123973
117	0x3d36c8b3	0.044624995
118	0xbdb6b4bd	-0.08921192
119	0x3d922f68	0.07137948
120	0xbde38655	-0.11109606
121	0xbd5de396	-0.05417212
122	0xbd928575	-0.07154361
123	0xbe8c9276	-0.2745549
124	0xbe12302c	-0.14276189
125	0xbe12c6a9	-0.14333595
126	0xbc8c641a	-0.017137576
127	0xbda55227	-0.0807231
128	0xbd7080c0	-0.058716536
129	0xbdc25bc6	-0.09490161
130	0xbda1c827	-0.07899504
131	0xbe003646	-0.12520704
132	0xbe1c80e8	-0.15283549
133	0xbdd2742f	-0.102760665
134	0xbdc93823	-0.0982516
135	0xbbd6d8fe	-0.006556629
136	0x3db199b4	0.08671895
137	0x3dd038a0	0.1016705
138	0x3d4929fc	0.049112305
139	0xbd95fbbd	-0.07323406
140	0x3cae2482	0.021257643
141	0x3b8acb96	0.004235695
142	0xbe197c74	-0.14988881
143	0xbe503ab9	-0.20334901
144	0x3e0e3d08	0.13890469
145	0x3da9c2c8	0.08289105
146	0x3d8f54b2	0.06998576
147	0x3d5195e1	0.051168326
148	0xbde3cf8d	-0.111235715
149	0xbde8fb70	-0.11376083
150	0x3dd31e86	0.10308556
151	0x3d26e992	0.040750094
152	0xbd13a501	-0.03604603
153	0x3df1a1df	0.117984526
154	0xbd1d1256	-0.038347565
155	0xbcefe523	-0.029284066
156	0x3dbcf0ed	0.092256404
157	0xbe0ed748	-0.13949311
158	0xbdb50837	-0.088394575
159	0x3e317703	0.17330556
160	0x3e075ed6	0.13219771
161	0xbd803fb0	-0.062621474
162	0x3e0ac47a	0.13551512
163	0xbbe876bc	-0.0070942324
164	0x3c939072	0.018013213
165	0x3da371d5	0.07980696
166	0x3da3870f	0.07984745
167	0x3dcb3883	0.09922888
168	0x3df9e225	0.12201337
169	0xbd840448	-0.06446129
170	0x3d81bfd5	0.06335417
171	0x3cef2039	0.02919017
172	0x3de6b27e	0.112645134
173	0x3ce8e10e	0.028427627
174	0xbc6ee289	-0.014580377
175	0x3d67d023	0.05659498
176	0x3e277739	0.16354074
177	0x3dc0fcbd	0.09423206
178	0x3dbd89e6	0.09254818
179	0x3d0a5cc6	0.033779882
180	0x3c954b56	0.0182244
181	0xbd82cc00	-0.06386566
182	0xbe733472	-0.23750475
183	0xbd08e5d0	-0.03342229
184	0xbd15f7b2	-0.036613174
185	0x3d2affb6	0.04174777
186	0xbe0d0023	-0.13769583
187	0xbd6f312c	-0.058396503
188	0xbde1410c	-0.10998735
189	0x3d5b6279	0.053560708
190	0x3def021d	0.11670325
191	0x3c8ef657	0.017451448
192	0xbd8ab941	-0.06773616
193	0x3d6a1b48	0.057154924
194	0x3df7e06e	0.121033534
195	0xbcfa3621	-0.030543389
196	0xbbd638ea	-0.0065375464
197	0xb9a526b0	-0.00031500077
198	0x3e8b69e4	0.27229226
199	0x3e1e2bfb	0.15446465
200	0x3dafc003	0.08581545
201	0x3c4efe7b	0.012633915
202	0x3c53f314	0.012936372
203	0x3d8c8f2f	0.068632476
204	0x3d2c1d9e	0.042020433
205	0xbdb0736f	-0.08615767
206	0xbb3920de	-0.002824835
207	0xbde42bd7	-0.11141174
208	0xbd8f7c69	-0.07006151
209	0xbe39c9be	-0.18143365
210	0xbe0fba12	-0.14035824
211	0xbe6705d8	-0.22560823
212	0xbe57aed6	-0.21062788
213	0xbe4ee114	-0.20203048
214	0xbe87a6f9	-0.26494578
215	0xbe3687ec	-0.17825288
216	0x3dd2456c	0.102671474
217	0x3c132467	0.008980847
218	0x3e381723	0.17977576
219	0x3e29ee20	0.16594744
220	0xbd81727c	-0.06320664
221	0x3d432db2	0.047651
222	0xbcc3672b	-0.023852905
223	0xbd967d6c	-0.07348141
224	0x3bb9a593	0.00566549
225	0xbd75f48d	-0.060047675
226	0xbd467990	-0.048455775
227	0x3bb7b0fd	0.0056058154
228	0x3e0fb755	0.1403478
229	0x3e146b45	0.14494045
230	0x3d9e1855	0.07719485
231	0x3d68f433	0.05687351
232	0xbdd6219a	-0.10455628
233	0x3cc99603	0.024607664
234	0x3dcb7425	0.09934262
235	0x3e7a8b3d	0.24467178
236	0x3c195772	0.0093592275
237	0xbd295cb2	-0.041348167
238	0xbe00304d	-0.12518425
239	0xbe028c03	-0.12748723
240	0xbddf976d	-0.10917554
241	0xbd92d197	-0.07168882
242	0xbda7e1ca	-0.08197363
243	0x3e3c5034	0.1838997
244	0x3d58df8c	0.052947566
245	0x3d80e7be	0.06294201
246	0x3e1fa438	0.15589988
247	0x3da38a0f	0.07985317
248	0x3df48a00	0.11940384
249	0x3d8c4657	0.06849354
250	0x3d55c796	0.052192293
251	0x3dc6b0da	0.097017005
252	0xbcabd35f	-0.020974813
253	0x3d70d564	0.058797255
254	0xbc96e8fb	-0.01842164
255	0xbdc7f923	-0.09764316

conv2.bias f4 [64]
0	0xbc8f799a	-0.017514039
1	0xbcc4d046	-0.024025094
2	0x3cf484a3	0.029848402
3	0xba57c669	-0.00082311645
4	0xbd30aa01	-0.04313088
5	0x3cd6968c	0.026194833
6	0x3cb162f9	0.02165364
7	0x3d306e47	0.04307392
8	0x3d108570	0.035283506
9	0xbc32da48	-0.0109163
10	0x3d88a470	0.06671989
11	0xbcd75348	-0.026284829
12	0x3d84f3a1	0.06491781
13	0xbd0af735	-0.03392716
14	0xbd2e7c1f	-0.04259884
15	0x3d84d524	0.06485966
16	0x3d3c6094	0.04599054
17	0x3d00fb0d	0.03148942
18	0x3ba5c2c0	0.0050586164
19	0xbcb7fc4d	-0.022459174
20	0x3cb8be96	0.022551816
21	0xbd32d6f6	-0.043662034
22	0xbc285f20	-0.010276586
23	0x3cc3450a	0.023836631
24	0x3bdb3429	0.0066895676
25	0x3bc90973	0.0061351596
26	0xbb095c33	-0.0020959496
27	0x3b47ef05	0.0030507457
28	0xbd8c3a8e	-0.06847106
29	0x3cdb0bbb	0.026738992
30	0xbbeea367	-0.0072826627
31	0xbca5c16e	-0.020233836
32	0x3d6805da	0.056646205
33	0xbbb36448	-0.005474601
34	0x3d12d6b2	0.03584928
35	0xbc31c609	-0.010850438
36	0xbc363517	-0.011121056
37	0x3b3f1678	0.002915768
38	0xbc49c6c2	-0.012315454
39	0xbd1e715a	-0.03868232
40	0xbc884b8e	-0.01663759
41	0x3d53cc74	0.051708654
42	0x3c9a9bc9	0.018873112
43	0xbcd37064	-0.025810428
44	0x3af06651	0.001834104
45	0x3d0158b1	0.031578723
46	0x3c0dedc2	0.008662643
47	0xbcda8806	-0.02667619
48	0x3cd7d7e2	0.026348058
49	0xbd162916	-0.036660276
50	0x3d8edd35	0.06975786
51	0x3c8fc8ed	0.017551864
52	0x3d2e3eca	0.04254035
53	0x3bd482e7	0.0064853313
54	0x3d825e08	0.06365591
55	0xbc67e235	-0.014153053
56	0x3b8aae71	0.004232221
57	0xbc2a620e	-0.010399355
58	0x3cb63213	0.022240674
59	0xbd318705	-0.043341655
60	0x3bf6f0dc	0.007536037
61	0x3c10e36d	0.008843285
62	0x3d0c6b6e	0.03428214
63	0x3aada923	0.0013249259

bn2.weight f4 [64]
0	0x3f2a1520	0.66438484
1	0x3f269ceb	0.6508319
2	0x3f340bd6	0.7033056
3	0x3f1adfe2	0.6049787
4	0x3f0c6cf2	0.5485374
5	0x3f213547	0.6297192
6	0x3f24c03b	0.6435582
7	0x3f32793f	0.69716257
8	0x3f22c23c	0.6357763
9	0x3f28614e	0.65773475
10	0x3f3db134	0.74098516
11	0x3f366d7e	0.7126082
12	0x3f1bc282	0.6084367
13	0x3f40535f	0.75127214
14	0x3f2433e2	0.64141667
15	0x3f1a3424	0.6023581
16	0x3f304b0b	0.68864506
17	0x3f2e8f5c	0.681875
18	0x3f1d727e	0.61502826
19	0x3f15eba1	0.58562666
20	0x3f22cce2	0.63593876
21	0x3f1fc764	0.6241362
22	0x3f2e3a8c	0.68058085
23	0x3f36c2db	0.71391076
24	0x3f389ea7	0.72117084
25	0x3f10e562	0.5660001
26	0x3f27652a	0.6538874
27	0x3f00913c	0.5022161
28	0x3f24f116	0.6443037
29	0x3f13032b	0.5742671
30	0x3f2d24e2	0.67634404
31	0x3f2e47d0	0.6807833
32	0x3f16fa69	0.58975846
33	0x3f2c6bf9	0.67352253
34	0x3f1217c0	0.5706749
35	0x3f25b681	0.64731604
36	0x3f23be8c	0.63962626
37	0x3ee9f9f6	0.45698518
38	0x3efdb8f3	0.49555168
39	0x3f37262a	0.7154261
40	0x3f28046c	0.6563175
41	0x3f231533	0.6370422
42	0x3f27e4c6	0.65583456
43	0x3f1e227a	0.6177136
44	0x3eef600a	0.4675296
45	0x3f4289ab	0.75991315
46	0x3f36e4c5	0.71442825
47	0x3f21080b	0.629029
48	0x3f172047	0.59033626
49	0x3f130775	0.57433254
50	0x3f30ad67	0.6901459
51	0x3f209124	0.62721467
52	0x3f1e61b9	0.6186786
53	0x3f19317a	0.5984112
54	0x3f210d58	0.62910986
55	0x3f24d1c4	0.64382577
56	0x3f29f000	0.66381836
57	0x3f00f0e7	0.5036759
58	0x3ec9a96e	0.39387077
59	0x3f2d5f95	0.6772397
60	0x3f1d6251	0.61478144
61	0x3f12dc37	0.5736727
62	0x3f220817	0.63293594
63	0x3f39ef31	0.726306

bn2.bias f4 [64]
0	0xbf113701	-0.56724554
1	0xbf128d09	-0.5724645
2	0xbf1d841e	-0.6152972
3	0xbf14c22c	-0.5810878
4	0xbf3c3a02	-0.7352601
5	0xbf093520	-0.5359669
6	0xbefaf18e	-0.49012417
7	0xbf185439	-0.59503514
8	0xbf007eac	-0.50193286
9	0xbf161f0c	-0.58641124
10	0xbf1bd802	-0.60876477
11	0xbf35357c	-0.70784736
12	0xbf166767	-0.5875153
13	0xbf08511f	-0.5324878
14	0xbf0b18e4	-0.54334855
15	0xbf0162b2	-0.5054122
16	0xbf1ce90e	-0.61293113
17	0xbf27cb6b	-0.65544766
18	0xbf47c2cc	-0.7803161
19	0xbf2820f8	-0.65675306
20	0xbf0a3691	-0.5398951
21	0xbef7a7b6	-0.4837014
22	0xbf1e1499	-0.6175018
23	0xbf1f7fa0	-0.62304115
24	0xbf1b2e2d	-0.60617334
25	0xbf25869d	-0.6465853
26	0xbf0a3bba	-0.53997386
27	0xbf3f2648	-0.7466779
28	0xbece0166	-0.40235442
29	0xbf05eb7e	-0.5231246
30	0xbeed6bfd	-0.4637145
31	0xbf214b71	-0.6300574
32	0xbf2e0922	-0.67982686
33	0xbf055b23	-0.5209219
34	0xbf06146b	-0.52374905
35	0xbedf54bf	-0.43619344
36	0xbf2a7e39	-0.6659885
37	0xbf0db735	-0.55357677
38	0xbf23c7ca	-0.6397673
39	0xbf28b84a	-0.659062
40	0xbf1ee719	-0.6207138
41	0xbf0a1889	-0.5394369
42	0xbf23a536	-0.63923967
43	0xbeef9097	-0.4679
44	0xbf17cf70	-0.593009
45	0xbf2a3bf1	-0.66497713
46	0xbf2669ad	-0.65005
47	0xbf0b2ad4	-0.54362226
48	0xbf099623	-0.53744715
49	0xbf3aedfa	-0.73019373
50	0xbef78a74	-0.4834782
51	0xbf052a77	-0.5201792
52	0xbef2d393	-0.47427043
53	0xbefd17d5	-0.49432245
54	0xbf03b6d9	-0.5145088
55	0xbf42d718	-0.76109457
56	0xbef9a514	-0.48758757
57	0xbf181128	-0.5940118
58	0xbf1342e4	-0.5752394
59	0xbf12439a	-0.571344
60	0xbefc4800	-0.49273682
61	0xbf1ee995	-0.6207517
62	0xbf0425c2	-0.51620114
63	0xbf261ff2	-0.64892495

bn2.running_mean f4 [64]
0	0x3e2c9afc	0.16855997
1	0x3cf990a2	0.030464474
2	0xc000f771	-2.0151026
3	0xbe45010e	-0.19238684
4	0xc006d368	-2.1066532
5	0xbfef4802	-1.869385
6	0xbf88dbda	-1.0692093
7	0xbff0ded1	-1.8817998
8	0xc03020ba	-2.7519975
9	0xc01cb0f4	-2.4483004
10	0xbfe4178f	-1.781969
11	0xc00eb6a7	-2.2298982
12	0xbf0eb01d	-0.5573748
13	0xbf4c495b	-0.7979943
14	0xbfb013dc	-1.3756061
15	0xbf953cc3	-1.1659168
16	0xbfc2ff3b	-1.523414
17	0xbfc87642	-1.566109
18	0xc0271150	-2.6104317
19	0x3f266eb2	0.6501266
20	0xc0a56312	-5.1683435
21	0xc012f391	-2.296116
22	0xbf80a54c	-1.0050445
23	0xbf344ac8	-0.7042661
24	0xc060f0a4	-3.5146875
25	0xbfa69466	-1.3014038
26	0xbf05fb2a	-0.5233637
27	0xbf81af1d	-1.0131565
28	0xc086aeb9	-4.2088284
29	0xbfd9ed2f	-1.7025508
30	0xbd5509e9	-0.052011404
31	0xc05d2990	-3.4556618
32	0xbe46e29c	-0.19422382
33	0xc02f7d5e	-2.7420268
34	0xbf7681af	-0.9629163
35	0xc0826fdc	-4.0761547
36	0xbef243dc	-0.47317398
37	0x3ed5082a	0.4160779
38	0xbe4558e1	-0.19272186
39	0xc011d50d	-2.2786286
40	0xc05fe5c1	-3.498398
41	0xc0902866	-4.5049314
42	0xbff1bd36	-1.8885868
43	0xc040ba04	-3.0113535
44	0xbfba8027	-1.4570359
45	0xbfd8a663	-1.6925777
46	0xbdc56fd1	-0.09640468
47	0xbfc0e8c8	-1.5071039
48	0xc02a066b	-2.6566417
49	0xbef3ede4	-0.47642434
50	0x3e981a60	0.29707623
51	0xc00f7083	-2.2412422
52	0xbf3265f8	-0.6968684
53	0xc06f6210	-3.7403603
54	0xbf9635d4	-1.1735177
55	0xbfd01abe	-1.6258161
56	0xc02396ef	-2.5560873
57	0x3fb08736	1.3791263
58	0xc005e0ef	-2.0918539
59	0xbfba6b5a	-1.4564011
60	0xbfcc8d25	-1.5980574
61	0xbeba459f	-0.36381242
62	0xbfc77538	-1.5582647
63	0xbf64d928	-0.89393854

bn2.running_var f4 [64]
0	0x4120d7c6	10.052679
1	0x41095ab4	8.584644
2	0x40fff153	7.9982085
3	0x41097beb	8.592753
4	0x40551c84	3.3298655
5	0x4108b11e	8.5432415
6	0x41123fb5	9.140553
7	0x40bd451a	5.9146852
8	0x4156b0f3	13.4182005
9	0x40fab719	7.834851
10	0x410d8f0c	8.847424
11	0x40dc7603	6.8894057
12	0x41348142	11.281557
13	0x40cf00da	6.468854
14	0x40f5d683	7.6824355
15	0x4120be1d	10.046414
16	0x40f6e059	7.714886
17	0x4116d5ed	9.427228
18	0x404e93a4	3.2277613
19	0x40aa3c85	5.3198876
20	0x41530327	13.18827
21	0x40d7183a	6.7217073
22	0x40d91ae9	6.784535
23	0x412612b2	10.379564
24	0x4109af3f	8.605285
25	0x41226852	10.150469
26	0x41059393	8.348529
27	0x405a893b	3.414626
28	0x41806ae0	16.052185
29	0x412db10a	10.855722
30	0x4117fd75	9.499379
31	0x410b84a0	8.719879
32	0x41212d17	10.073508
33	0x413db38d	11.856336
34	0x40b2787d	5.577208
35	0x412601bc	10.375423
36	0x410cb983	8.795291
37	0x40c1fc33	6.062036
38	0x40ae0022	5.437516
39	0x412fb78c	10.982311
40	0x4132aebb	11.167659
41	0x415ee134	13.929981
42	0x410c0f67	8.75376
43	0x41290f56	10.566244
44	0x4042a8db	3.0415561
45	0x40dba809	6.864262
46	0x409ad52c	4.838522
47	0x412e1783	10.88074
48	0x4107e921	8.494416
49	0x410d0d7d	8.815793
50	0x41172da4	9.448643
51	0x413e3fb3	11.890552
52	0x4129bdcf	10.60884
53	0x4127126d	10.4419985
54	0x411db34d	9.856275
55	0x40c3a0ed	6.1133943
56	0x416b1f2f	14.695113
57	0x40f91e45	7.784945
58	0x40957ece	4.671729
59	0x40c0653e	6.0123587
60	0x413c8575	11.782582
61	0x40d1f566	6.561206
62	0x413119ce	11.0688
63	0x40b2a2c7	5.5823703

fc1.weight f4 [128, 1600]
0	0xbd93b96e	-0.07213102
1	0x3e086a59	0.13321818
2	0x3e1cd325	0.1531492
3	0x3d7de4f6	0.061985932
4	0xbdcf246e	-0.1011437
5	0x3e1e79a8	0.15476096
6	0x3e239d17	0.15977894
7	0xbd590bcd	-0.05298977
8	0x3c82589c	0.015911393
9	0x3dee338e	0.11630927
10	0x3dc8c21b	0.09802648
11	0x3e96d376	0.29458207
12	0x3e90599a	0.2819336
13	0xbdb08e0e	-0.08620845
14	0xbd0f69d6	-0.035013042
15	0xbc489fe7	-0.012245155
16	0xbdbb0b22	-0.09132983
17	0xbdb06ce2	-0.08614518
18	0x3c9b26ad	0.01893934
19	0xbd113981	-0.03545523
20	0x3d8c68b0	0.06855905
21	0xbce9d424	-0.02854354
22	0x3da2fc81	0.079583175
23	0x3e0ee7cf	0.13955615
24	0x3c8716a0	0.01649028
25	0x3d3f9bdf	0.04677951
26	0x3e0466dc	0.12929863
27	0x3e1b8acd	0.15189667
28	0x3e0b4ffc	0.1360473
29	0x3dbe6341	0.09296275
30	0xbd2c8bdc	-0.042125568
31	0xbd6104ea	-0.054936327
32	0xbd271d35	-0.04079934
33	0xbdf7505c	-0.12075874
34	0xbc831a60	-0.016003788
35	0xbd88fb6e	-0.066885814
36	0xbdd4b517	-0.10386103
37	0x3e90bc22	0.28268534
38	0xbd9b16c7	-0.07572704
39	0xbd496411	-0.049167696
40	0xbdc5ac16	-0.096519634
41	0xbe11b6d9	-0.14229907
42	0x3d0c2360	0.034213424
43	0xbd8d2ec0	-0.068936825
44	0xbdc44bff	-0.095848076
45	0xbe0910a8	-0.1338526
46	0xbdf451d3	-0.11929669
47	0x3d7759ed	0.060388494
48	0xbe2eceb0	-0.17071033
49	0xbde5dd7d	-0.11223886
50	0xbce4f0e5	-0.027946899
51	0x3e0a6243	0.13514046
52	0xbd9a324f	-0.07529127
53	0x3ba68fa9	0.0050830436
54	0x3d99d227	0.075107865
55	0x3d2825d7	0.041051712
56	0x3d90ca79	0.070698686
57	0xbc73f08a	-0.014888892
58	0xbd29fc3f	-0.041500326
59	0x3c7e056c	0.015504222
60	0xbd4e610b	-0.050385516
61	0xbc0f096b	-0.008730273
62	0xbe5547f0	-0.20828223
63	0x3e401086	0.18756303
64	0x3dd49d4e	0.10381566
65	0x3dbaa687	0.09113794
66	0x3be263ce	0.0069088703
67	0xbd46081f	-0.04834759
68	0xbde172ab	-0.11008199
69	0x3e340dd3	0.17583399
70	0x3c800aac	0.015630089
71	0xbd66d755	-0.0563577
72	0xbc830408	-0.015993133
73	0x3c88d450	0.016702801
74	0x3e9a44cf	0.30130622
75	0xbd4f00f0	-0.050538003
76	0xbd3b7fc2	-0.045776136
77	0xbe2fa95b	-0.17154448
78	0xbd583c7d	-0.05279206
79	0xbd9812d7	-0.074254684
80	0xba82d1b7	-0.0009980713
81	0xbd96bdf4	-0.073604494
82	0xbd99be8e	-0.075070485
83	0x3d8aa4f0	0.067697406
84	0x3e2d8cf9	0.16948308
85	0x3db30d6c	0.087427944
86	0x3c919f30	0.017776102
87	0x3d46181e	0.048362844
88	0x3e5164f4	0.20448667
89	0x3e8085fb	0.2510222
90	0x3c7aa65e	0.015298454
91	0x3dc1c7b5	0.09461919
92	0x3e2d58a8	0.16928351
93	0x3e041a87	0.12900744
94	0xbd637410	-0.055530608
95	0x3e3e7cae	0.18602249
96	0x3e31cb8a	0.173628
97	0x3e61c0b9	0.22046174
98	0x3e16bf17	0.14721332
99	0xbc8be3a3	-0.01707632
100	0x3e3b52d7	0.1829332
101	0x3e2ce13a	0.16882792
102	0x3e213011	0.15740992
103	0x3ca2cd23	0.019873207
104	0x3dee2b30	0.11629331
105	0x3d3666b8	0.044531554
106	0x3c08c3c3	0.0083474545
107	0xbce9c1db	-0.02853482
108	0x3c6d604b	0.01448829
109	0x3d67b083	0.05656482
110	0xbc352437	-0.011055998
111	0xbe2d25e7	-0.1690899
112	0x3bda3bf9	0.0066599813
113	0x3da12257	0.07867878
114	0x3e5741da	0.21021214
115	0xbdd5686d	-0.10420308
116	0x3cd6c633	0.026217556
117	0xbd996d99	-0.07491607
118	0x3ba13ce8	0.0049205907
119	0x3df6e9d8	0.12056321
120	0xbcaa5c97	-0.020796103
121	0xbbd58f72	-0.006517344
122	0xbb9decff	-0.004819512
123	0x3b0349e6	0.002003306
124	0x3e4c9e6e	0.19982311
125	0x3cc1848b	0.023622772
126	0xbce555d1	-0.027995022
127	0x3dbabf06	0.09118466
128	0x3de3d871	0.11125267
129	0x3c90257c	0.017595999
130	0x3db19718	0.08671397
131	0x3a912c58	0.0011075838
132	0xbdb60198	-0.08887023
133	0x3d1ef062	0.038803466
134	0x3da9bfb7	0.0828852
135	0xbd7fdd4a	-0.062466897
136	0x3b74c473	0.0037348538
137	0x3e977db3	0.29588088
138	0x3d450755	0.048102695
139	0xbd3c9905	-0.04604437
140	0xbd603df1	-0.054746572
141	0xbd4e5c28	-0.050380856
142	0x3e1d5914	0.15366012
143	0x3c2268c0	0.00991267
144	0xbd23a3c8	-0.039951116
145	0xbcae59e1	-0.021283092
146	0xbbc83eef	-0.006111018
147	0x3d77c856	0.06049379
148	0xbdf3946b	-0.11893543
149	0xbe07c848	-0.13259995
150	0xbdbc668e	-0.09199248
151	0xbd3eb397	-0.04655799
152	0xbbb96577	-0.0056578475
153	0xbd5d11cd	-0.053972054
154	0xbd8412a1	-0.06448866
155	0x3e1350c0	0.14386272
156	0x3dc7a92d	0.097490646
157	0xbd3b178f	-0.045676764
158	0xbd535b15	-0.051600534
159	0xbd7a0725	-0.06104197
160	0x3dc01dfa	0.093807176
161	0x3e4bbdc8	0.19896615
162	0xbc6e87df	-0.014558761
163	0xbb521a4b	-0.003205913
164	0x3da94077	0.08264249
165	0xbc9b8754	-0.018985428
166	0x3e22eac3	0.15909867
167	0x3e167365	0.14692457
168	0xbd40e0b7	-0.047089305
169	0x3ddcf13a	0.10788198
170	0xbd7411ad	-0.05958717
171	0x3d838e08	0.06423575
172	0x3dd57f2d	0.104246475
173	0x3dab5481	0.08365727
174	0x3d2ddc0f	0.042446192
175	0xbd0b7a98	-0.03405246
176	0x3d2fc565	0.04291286
177	0x3d2ff1e1	0.042955283
178	0x3d2ad8cc	0.04171066
179	0xbcc20a50	-0.023686558
180	0xbdbd4c34	-0.0924305
181	0xbd1a8347	-0.037722852
182	0xbdda9ba9	-0.10674221
183	0xbda59d5c	-0.080866545
184	0xbd73812a	-0.059449352
185	0xbd108118	-0.035279363
186	0x3e04cfbe	0.12969872
187	0x3ce106a8	0.027468994
188	0x3ca3ec12	0.020010028
189	0x3c5fca42	0.013659062
190	0xbcc59292	-0.024117742
191	0x3d9c348a	0.076272085
192	0x3dcec5c8	0.100963175
193	0x3e0c7684	0.13717085
194	0xbd2289d1	-0.039682213
195	0x3db4ff75	0.08837787
196	0x3c7ba7df	0.015359848
197	0xbcf7b7fc	-0.030239098
198	0xbd168b38	-0.036753863
199	0x3c27b0f0	0.010235056
200	0x3d9b2cba	0.0757689
201	0x3c6bba08	0.014387615
202	0x3db7be62	0.089718595
203	0x3d2a2eb1	0.041548435
204	0xbdf467bb	-0.119338475
205	0x3e16d93c	0.14731306
206	0x3e02af7d	0.12762256
207	0x3e765261	0.24054863
208	0x3d7e754b	0.062123578
209	0xbce74f81	-0.028236153
210	0xbc0f134a	-0.008732626
211	0x3df18e6f	0.11794745
212	0x3e8b1a0c	0.2716831
213	0x3d0ee17f	0.03488302
214	0xbdfb52e4	-0.122716695
215	0x3d9d3c79	0.0767755
216	0x3ded20ea	0.115785435
217	0x3c34573b	0.0110071255
218	0x3d06bd54	0.0328954
219	0x3ddc9c13	0.10771956
220	0x3bc37f99	0.0059661386
221	0xbdc252f1	-0.09488476
222	0xbe1c3072	-0.15252855
223	0x3dc2e51b	0.09516355
224	0x3d446e79	0.047956917
225	0xbc3d7294	-0.011562962
226	0x3befbbe3	0.007316099
227	0xbcc6ea93	-0.024281776
228	0xbc9ef4c5	-0.019403825
229	0xbdbeff78	-0.093260705
230	0xbe3bd939	-0.18344583
231	0x3c4b744e	0.012417866
232	0x3ca5bb47	0.020230902
233	0xb980ef30	-0.0002459227
234	0xbe58b02a	-0.21160951
235	0x3dd75506	0.10514264
236	0x3e65caef	0.22440694
237	0x3b102998	0.0021997448
238	0x3ddad960	0.10685992
239	0x3df1c6f3	0.11805525
240	0x3dfcdac7	0.12346416
241	0x3da34085	0.079712905
242	0xbc308c08	-0.010775574
243	0x3b7f45cb	0.0038951512
244	0x3e146ca7	0.14494573
245	0x3d802a96	0.062581226
246	0x3de79131	0.1130699
247	0x3dbe0e3b	0.09280058
248	0x3e34fa97	0.17673717
249	0x3dd6dca2	0.10491301
250	0xbdbfc735	-0.093641676
251	0xbc6ec9c5	-0.014574473
252	0x3bcb9556	0.0062128706
253	0x3c0012e1	0.007817001
254	0xbc8622b0	-0.016373962
255	0xbdcbe64f	-0.09956037

fc1.bias f4 [128]
0	0xbd37e35d	-0.044894565
1	0x3c75f686	0.015012389
2	0xbcaac63d	-0.02084648
3	0x3dc8da9f	0.09807324
4	0x3dc87314	0.097875744
5	0xbca0eacc	-0.01964321
6	0xbc24c2be	-0.010056196
7	0xbb5918c7	-0.003312634
8	0x3dedaf1e	0.116056666
9	0x3dd41f05	0.10357479
10	0x3c7076c0	0.01467675
11	0x3d5439e0	0.051813006
12	0x3d841363	0.0644901
13	0xbc5cbb56	-0.013472399
14	0x3cc323e2	0.023820821
15	0x3e146980	0.1449337
16	0xbc455338	-0.012043767
17	0x3c737ad9	0.014860832
18	0xbd564213	-0.052309107
19	0xbcf8d0f7	-0.03037308
20	0xbd1bd82b	-0.03804795
21	0x3c5118ed	0.01276229
22	0xbc87c3de	-0.016572889
23	0xbd48b383	-0.04899932
24	0xbc918d02	-0.017767433
25	0xbc9d3872	-0.019191954
26	0x3d021f9b	0.031768423
27	0xbb1668ae	-0.0022950578
28	0xbdb21ce6	-0.08696918
29	0xbc6731fa	-0.014111036
30	0x3da3a3be	0.07990216
31	0x3d5f0af5	0.05445381
32	0xbdd0e717	-0.10200327
33	0x3d6591db	0.0560473
34	0xbdc6a5e2	-0.096996084
35	0x3d4d6e12	0.0501538
36	0xbd6b88e3	-0.057503592
37	0xbd4d4b75	-0.05012079
38	0x3cdc5909	0.026897924
39	0x3baa2712	0.005192646
40	0xbca537ce	-0.020168211
41	0x3cc7eecd	0.024405861
42	0x3dbcef58	0.09225339
43	0xbd0bffd9	-0.034179542
44	0xbd7ac571	-0.06122345
45	0xbba90104	-0.005157592
46	0x3d14e977	0.036355462
47	0x3d5f7924	0.054558888
48	0xbb834bbb	-0.0040068305
49	0xbd062f79	-0.032760117
50	0xbd919c84	-0.07109931
51	0xbd66dc08	-0.056362182
52	0x3dbe1c7f	0.09282779
53	0xbd899697	-0.06718176
54	0xbb04ba1e	-0.0020252536
55	0xbcf87dea	-0.030333478
56	0xbd97becd	-0.07409439
57	0x3b7b2050	0.003831882
58	0x3deba2f5	0.11505691
59	0x3db39c3f	0.08770036
60	0xbdc49384	-0.09598449
61	0xbd6d71fe	-0.05797004
62	0xbbfbe019	-0.0076866266
63	0xbbe2fba6	-0.0069269715
64	0xbce31701	-0.02772093
65	0xbd191f42	-0.037383325
66	0x3d85c893	0.06532397
67	0x3b8cf0fe	0.0043011894
68	0xbcb49e53	-0.022048151
69	0xbcebe482	-0.028795484
70	0x3d5c80b8	0.053833693
71	0x3d377214	0.044786528
72	0xbc3dd25b	-0.011585797
73	0x3d0e6f57	0.03477415
74	0xbd8c278d	-0.06843481
75	0xbd9392f6	-0.07205765
76	0x3d0b7f47	0.034056928
77	0x3d3d6b9f	0.046245214
78	0x3c89c2df	0.016816555
79	0xbd5ef0dc	-0.05442892
80	0x3daccf7c	0.08438012
81	0x3bd3a4e6	0.0064588664
82	0xbd24b118	-0.040207952
83	0x3d76dfdc	0.060272083
84	0x3c6bbcd5	0.014388283
85	0xbd12afd6	-0.03581222
86	0x3d87fda7	0.06640177
87	0x3c8f0c58	0.01746194
88	0xbd0a1f30	-0.03372115
89	0xbb880dca	-0.0041520344
90	0xbd35be48	-0.04437092
91	0x3da693f5	0.08133689
92	0x3b5b69af	0.003347974
93	0xbcabbbcc	-0.020963572
94	0xbcf5fcf1	-0.030027838
95	0x3daef1e4	0.08542231
96	0xbba08ff6	-0.004899974
97	0x3dac7842	0.08421375
98	0xbda300b8	-0.079591215
99	0xbcb10528	-0.021608904
100	0xbcd1a8a5	-0.025593111
101	0xbdb9832f	-0.090582244
102	0x3d138bf0	0.036022127
103	0x3ca54d84	0.020178564
104	0xbcaf348f	-0.021387367
105	0x3de4ba75	0.11168376
106	0x3dceb221	0.10092569
107	0xbdfc5792	-0.1232139
108	0xbbc16b65	-0.005902695
109	0x3d7f7c1f	0.06237423
110	0x3d75bdb9	0.059995387
111	0xbc647906	-0.01394487
112	0xbd035dc4	-0.032071844
113	0x3d95fa89	0.073231764
114	0xbcfe12f9	-0.031014906
115	0x3dbbf013	0.0917665
116	0xbcf99e0f	-0.030470876
117	0xbd3d8845	-0.046272535
118	0x3d103a54	0.035211876
119	0x3c389443	0.011265817
120	0xbd2a6409	-0.041599307
121	0xbd5c2263	-0.05374373
122	0x3c4a39d3	0.012342888
123	0x3cb66198	0.022263333
124	0xbd74711a	-0.059678175
125	0x3d7caae9	0.06168643
126	0xbde7682a	-0.112991646
127	0xbc1d0e20	-0.009585887

fc2.weight f4 [10, 128]
0	0x3d707399	0.058703993
1	0x3df18958	0.11793774
2	0xbe11b2ea	-0.14228407
3	0x3de917a7	0.113814645
4	0x3d1306d0	0.03589517
5	0xbdf316be	-0.11869572
6	0xbd47379f	-0.04863703
7	0xbd9f5078	-0.0777902
8	0x3e8c5092	0.2740522
9	0x3e2eb633	0.17061691
10	0xbdea8b5f	-0.11452364
11	0xbe16925a	-0.14704266
12	0xbbf21c78	-0.0073886476
13	0xbe4dedb6	-0.20110211
14	0xbdfdd10c	-0.12393388
15	0xbda86001	-0.08221436
16	0xbe4bf8a2	-0.19919065
17	0x3da93dd6	0.082637474
18	0xbe314706	-0.1731225
19	0xbe4b7833	-0.19870071
20	0x3e33f1f9	0.17572774
21	0xbe90810d	-0.28223458
22	0xbe189a48	-0.14902604
23	0x3de0fb70	0.10985458
24	0xbd7d39d3	-0.061822724
25	0xbcda4422	-0.026643816
26	0x3e94d960	0.29072094
27	0xbd956fc4	-0.07296708
28	0xbd7f6512	-0.062352248
29	0xbc971565	-0.018442819
30	0x3d69493c	0.056954607
31	0x3e833c2b	0.25631842
32	0x3ded3dea	0.11584075
33	0xbdf727f1	-0.12068165
34	0x3e1e4f5a	0.15459958
35	0x3e02e416	0.1278232
36	0xbdf6c132	-0.12048568
37	0x3e10440b	0.14088456
38	0x3e3757d4	0.17904598
39	0x3ea9eaba	0.33186895
40	0xbe377cf8	-0.17918766
41	0x3dc493b2	0.09598483
42	0x3dcbba18	0.09947604
43	0xbdd7bf29	-0.10534508
44	0xbd751b2f	-0.059840377
45	0xbe5fa6c1	-0.21840955
46	0xbbcfb985	-0.0063392543
47	0x3e4ab213	0.19794492
48	0x3dc56bc1	0.09639693
49	0xbdaa3470	-0.08310783
50	0xbd4defed	-0.05027764
51	0x3e13364d	0.14376183
52	0x3dae5d68	0.085139096
53	0xbc0f71d9	-0.008755171
54	0x3dc9d60c	0.09855279
55	0x3e25ce65	0.16192015
56	0xbe28fc2d	-0.16502447
57	0xbd84dc85	-0.06487373
58	0xbe18eaf6	-0.1493338
59	0xbd25b86c	-0.04045908
60	0x3e3574b2	0.17720297
61	0xbccca413	-0.02498058
62	0x3d9b6f5b	0.07589599
63	0x3e161b39	0.14658822
64	0xbca47fb2	-0.020080421
65	0xbe0d60da	-0.13806477
66	0xbe00d4b0	-0.12581134
67	0x3e514ab0	0.20438647
68	0x3e0967c1	0.13418485
69	0xbd4af163	-0.04954661
70	0x3e8846db	0.26616558
71	0x3dc1a64d	0.094555475
72	0xbe493506	-0.19649133
73	0x3e0f20aa	0.13977304
74	0x3cfc7048	0.030815259
75	0xbe1031c7	-0.14081489
76	0xbd52e709	-0.051489864
77	0x3e2b4680	0.16726112
78	0xbd8f7492	-0.07004656
79	0x3e37a0fe	0.17932507
80	0xbdd229ef	-0.102619044
81	0x3e2e470e	0.17019293
82	0xbddb2415	-0.107002415
83	0x3d196020	0.037445188
84	0xbddb423a	-0.10705991
85	0xbd560be6	-0.05225744
86	0x3e3696a2	0.178309
87	0x3dec24fb	0.11530491
88	0xbd903b78	-0.07042593
89	0xbdedea71	-0.11616982
90	0xbe00cc77	-0.12577997
91	0x3e4f27b8	0.20229995
92	0x3dfbbd5a	0.12291975
93	0xbe0b2c02	-0.13591006
94	0xbdbf3295	-0.0933582
95	0x3e1bb601	0.15206148
96	0x3d353741	0.044242147
97	0x3de1a000	0.11016846
98	0x3d961253	0.07327714
99	0xbe2ffd08	-0.17186368
100	0x3d775a96	0.060389124
101	0xbc97b9da	-0.018521238
102	0x3e1cb2dc	0.15302604
103	0x3d078fc2	0.033096083
104	0x3e607c39	0.21922387
105	0xbd240cf1	-0.040051404
106	0xbded4622	-0.115856424
107	0x3e3442b7	0.17603575
108	0x3de5f311	0.11228002
109	0x3e559ef0	0.20861411
110	0x3dd280f6	0.102785036
111	0x3dcf2cae	0.10115944
112	0xbe4a5548	-0.19759095
113	0xbadaf005	-0.0016703611
114	0x3d8ca938	0.068682134
115	0x3dfaf4f7	0.122537546
116	0x3e19e572	0.15028933
117	0xbe0b5064	-0.13604885
118	0x3d5d9aa6	0.054102562
119	0x3d88a0d2	0.06671299
120	0x3d8763ef	0.06610858
121	0x3db56857	0.08857792
122	0x3e61490d	0.22000523
123	0x3d431a65	0.047632594
124	0xbddaa1c1	-0.10675383
125	0x3e3315d1	0.17488791
126	0xbdd3c9cb	-0.10341223
127	0x3def5a15	0.11687104
128	0x3e0a80e7	0.13525735
129	0xbdff09ec	-0.12453064
130	0x3e02d804	0.12777716
131	0x3e819f38	0.25316787
132	0x3d1b6026	0.03793349
133	0x3d044505	0.032292385
134	0x3e101870	0.14071822
135	0x3e1dacd7	0.15397964
136	0x3e8c504f	0.2740502
137	0xbe1a2266	-0.15052184
138	0x3e0490d3	0.12945871
139	0x3d83118d	0.06399832
140	0x3e6ead19	0.23308219
141	0x3dab2939	0.08357472
142	0x3dda72be	0.106664166
143	0x3df38455	0.11890475
144	0x3d5d5e0c	0.05404477
145	0xbdc020c0	-0.093812466
146	0xbe5aeee9	-0.213802
147	0xbbfbbcdb	-0.0076824254
148	0x3c15d80f	0.009145751
149	0x3d64d7b4	0.055869773
150	0x3d852cba	0.065026715
151	0xbe4a6353	-0.19764452
152	0xbd119608	-0.03554347
153	0xbc559b03	-0.013037446
154	0xbd836c0e	-0.06417094
155	0xbe185226	-0.14875087
156	0xbde568b5	-0.11201612
157	0x3e306b95	0.1722854
158	0x3d8fd693	0.07023349
159	0xbcc9fe55	-0.024657408
160	0xbe9f29b4	-0.31086504
161	0x3dfd9224	0.1238139
162	0xbe5a7edb	-0.21337454
163	0x3d9aa39d	0.07550738
164	0x3c51f85d	0.012815562
165	0xbdada567	-0.084788136
166	0x3dd554f3	0.104165934
167	0xbda243d1	-0.07923091
168	0xbcfac5ea	-0.03061195
169	0xbe056658	-0.13027322
170	0x3dcbf61b	0.0995905
171	0x3cd1cdcf	0.025610832
172	0xbdb3f48e	-0.087868795
173	0x3d6cb23d	0.05778717
174	0x3d951c60	0.07280803
175	0xbda0a2fd	-0.078435875
176	0xbc89315b	-0.016747167
177	0x39a4cf8f	0.0003143516
178	0xbe8ee86d	-0.27911702
179	0xbcb7f070	-0.022453517
180	0x3d716f8d	0.058944274
181	0xbe460940	-0.19339466
182	0xbe28dfc5	-0.16491611
183	0xbc800b3d	-0.015630359
184	0x3d8f35ed	0.069927074
185	0x3e3dc543	0.1853228
186	0x3da75ed1	0.08172382
187	0x3e237738	0.15963447
188	0x3c64da22	0.013968023
189	0xbe1a2ab2	-0.1505535
190	0xbe45fd55	-0.1933492
191	0x3de2b6e3	0.11070039
192	0x3e1f4bc2	0.15556243
193	0xbdf1b946	-0.11802916
194	0x3e418231	0.1889732
195	0xbdcf44db	-0.10120555
196	0xbd93f7e4	-0.07225016
197	0x3d9759e3	0.073901914
198	0xbce1e4db	-0.027574947
199	0xbe2e5423	-0.17024283
200	0xbb9f48a3	-0.004860954
201	0xbdedad4c	-0.116053194
202	0xbe907060	-0.28210735
203	0xbdddc2b3	-0.108281516
204	0x3d847efd	0.064695336
205	0xbdef924b	-0.11697825
206	0x3e58033e	0.21094987
207	0xbd3ccf09	-0.04609588
208	0x3e060f2a	0.13091722
209	0x3bb56d08	0.005536679
210	0x3df24b41	0.1183076
211	0x3e3a8053	0.18213014
212	0x3dabab5e	0.08382295
213	0xbe20bb6e	-0.15696499
214	0x3e48f871	0.19626023
215	0xbe1051ad	-0.14093657
216	0x3e529c44	0.20567423
217	0xbdc6070a	-0.09669311
218	0xbe0801a0	-0.1328187
219	0xbdbab8ea	-0.09117301
220	0x3d5ef6d0	0.054434597
221	0xbdb14311	-0.0865537
222	0x3d87c546	0.06629424
223	0x3e3dbee9	0.18529858
224	0x3c8ea7d4	0.017414011
225	0x3d8c582c	0.06852755
226	0xbe921e98	-0.28538966
227	0x3c0591d7	0.008152447
228	0xbe28092d	-0.1640975
229	0xbdccbd3f	-0.09997033
230	0xbd83ab54	-0.064291626
231	0xbe091614	-0.13387328
232	0xbd159cdf	-0.036526557
233	0x3e2fdf2b	0.17174976
234	0x3e191fed	0.14953585
235	0xbdc4a947	-0.096025996
236	0xbdd7787c	-0.105210274
237	0x3e0581fe	0.1303787
238	0x3d8ff909	0.070299216
239	0xbde69671	-0.11259163
240	0x3d3d023f	0.04614472
241	0x3e19e98d	0.15030499
242	0xbe63658a	-0.22206703
243	0x3dceb347	0.10092788
244	0x3d2a917e	0.04164266
245	0x3d9223d7	0.07135742
246	0xbe08b7e4	-0.13351399
247	0x3e36ca95	0.17850716
248	0xbdd6521e	-0.10464881
249	0x3d670941	0.05640531
250	0x3c212b46	0.009836977
251	0x3d93fc9a	0.07225914
252	0xbe172fb0	-0.14764285
253	0x3e13c6c3	0.1443129
254	0xbe0d29a2	-0.13785413
255	0xbe116d4f	-0.14201854

fc2.bias f4 [10]
0	0xbe1648ee	-0.14676258
1	0x3cb3689c	0.021900468
2	0x3ded2df5	0.11581031
3	0xbe4ded08	-0.20109951
4	0xbe328311	-0.1743281
5	0x3dce972c	0.100874275
6	0xbde87e11	-0.1135217
7	0x3b8394d1	0.004015543
8	0x3ddfdcf5	0.10930816
9	0x3d492549	0.049107824
