mnist_model.pth (torch, 907640 bytes, 16 tensors)

conv1.weight f4 [32, 1, 3, 3]
0.06432625 0.11460357 0.07435722 -0.08534814 0.049977526 -0.1434424 -0.27067062 -0.18190484
-0.22226445 -0.14604095 -0.017026981 0.047119603 -0.17136714 0.3245829 -0.00040667073 0.1491621
0.03701224 -0.08823732 -0.11765085 0.09039697 0.0803251 -0.24054877 0.075587325 0.08839721
-0.22137646 -0.28001148 -0.22398698 0.17681609 0.013063928 0.15286581 0.07049929 -0.2589048
0.077090465 0.2476529 0.103141464 0.19154637 0.13534006 -0.10172985 -0.25040087 0.06481663
0.069318086 -0.20501946 0.15737744 -0.13233368 -0.20508274 0.16526832 0.031679165 -0.20461503
0.10060809 0.058591105 -0.2182952 0.21172592 0.09176841 -0.21989676 -0.0591994 -0.17837176
-0.010578482 0.19651122 0.22686192 0.010656913 -0.19862776 -0.18343756 -0.044652954 -0.1935294
-0.13118449 -0.13860714 -0.021781068 -0.037694186 -0.18115935 0.17278491 0.15421438 0.048967987
-0.097064905 -0.019508632 0.21118619 -0.100808606 -0.21516165 -0.023956023 0.16799057 0.029564735
-0.15177536 0.106639 0.11717401 0.14512211 -0.16040336 0.002112941 0.17372873 -0.22018275
-0.14799057 -0.022575757 -0.13920332 -0.10036761 0.19813168 -0.19539835 -0.046728358 0.15531588
-0.06010316 -0.021007046 0.21391045 -0.040303838 -0.0171282 0.0776517 0.3439492 -0.34128606
-0.052895736 0.032955736 -0.10505674 0.05468002 0.19120558 0.14640205 0.012665035 0.03770506
-0.018551808 -0.26896575 0.099997334 0.18424144 0.06438013 -0.13494214 -0.20007029 0.069660835
0.13714354 -0.19404994 -0.13366513 0.13082805 -0.093446456 -0.2339944 -0.015080523 0.092443295
0.12111424 0.17654185 0.18674186 -0.039506912 -0.011229365 -0.15313087 -0.28887004 -0.17251141
0.2587097 -0.14283632 -0.153609 0.050234802 0.06560266 -0.047955003 -0.051740587 -0.074929595
-0.05698289 -0.25266138 -0.21418804 0.09135218 0.017414015 -0.05170984 0.11729097 0.13731559
0.17879355 -0.15057516 -0.11523635 -0.18393645 -0.23074982 -0.028054548 -0.05983607 0.08339239
0.121397816 0.22657496 -0.15339069 -0.24568942 -0.10051908 0.16182871 0.07309172 -0.28631246
0.04202115 0.1490126 -0.13429494 0.113100484 0.12012701 -0.23525362 0.076758504 -0.11456451
-0.20181468 -0.20818591 -0.20930296 -0.021370428 -0.20693426 -0.23705977 -0.055291016 -0.06476598
-0.04352423 0.1930927 0.17148 0.1525971 0.13313732 -0.22570047 -0.021109095 0.10811161
-0.10347737 -0.1897075 0.17011507 0.09886335 -0.2388297 0.023584977 -0.2776742 0.08283056
0.09466334 -0.18066527 -0.16245447 0.020240499 -0.035038956 -0.16310142 -0.30217323 0.17359315
-0.17793858 -0.03693118 0.070452005 -0.24351348 -0.023242958 -0.07636342 -0.1917826 0.098389745
0.17634287 0.24255304 0.08521481 0.12415853 -0.10772855 -0.26305425 -0.004833993 -0.12388493
-0.105675444 -0.049395896 0.009216473 0.01416521 -0.23346145 -0.05931265 -0.2802073 0.07907349
0.2127001 -0.13909627 0.19731434 0.09400145 -0.06333865 0.036369074 0.026997821 -0.29525778
-0.07201848 -0.16050234 -0.1977988 -0.2959858 0.24765117 0.05674106 0.13439555 0.039926272
-0.047685426 0.10537972 -0.08594085 0.0030349467 0.034663025 0.082946844 -0.02539789 -0.06364708
00000000: 7bbd 833d 47b5 ea3d 9948 983d 01cb aebd
00000010: 3cb5 4c3d 91e2 12be 5795 8abe 4345 3abe
00000020: 4b99 63be c28b 15be 2b7c 8bbc 7c00 413d
00000030: de7a 2fbe bb2f a63e 6c36 d5b9 f3bd 183e
00000040: 269a 173d c5b5 b4bd eef2 f0bd 0c22 b93d
00000050: 7c81 a43d 6b52 76be 87cd 9a3d 9909 b53d
00000060: 83b0 62be aa5d 8fbe d85c 65be 470f 353e
00000070: 160a 563c db88 1c3e ef61 903d 2c8f 84be
00000080: 9be1 9d3d b998 7d3e d53b d33d bb24 443e
00000090: 9696 0a3e bd57 d0bd 8b34 80be 95be 843d
000000a0: a4f6 8d3d 9ff0 51be 8d27 213e 7b82 07be
000000b0: 3601 52be 193c 293e 03c2 013d 9a86 51be
000000c0: 9d0b ce3d 3afd 6f3d c788 5fbe aece 583e
000000d0: 13f1 bb3d 9e2c 61be 127b 72bd 16a7 36be
000000e0: 5f51 2dbc 3d3a 493e 7e4e 683e 559a 2e3c
000000f0: 1365 4bbe 0ed7 3bbe 04e6 36bd 922c 46be
00000100: 3a55 06be 08ef 0dbe 366e b2bc 3865 1abd
00000110: d681 39be 87ee 303e 60ea 1d3e a892 483d
00000120: f7c9 c6bd 91d0 9fbc 3141 583e be74 cebd
00000130: 5653 5cbe 6c3f c4bc b805 2c3e be31 f23c
00000140: 006b 1bbe 8c65 da3d edf8 ef3d e49a 143e
00000150: c740 24be 4479 0a3b f2e5 313e 9677 61be
00000160: d78a 17be cbf0 b8bc 518b 0ebe 898d cdbd
00000170: 08e3 4a3e 8116 48be 3c66 3fbd 200b 1f3e
00000180: bb2e 76bd f816 acbc 570b 5b3e a315 25bd
00000190: 7050 8cbc db07 9f3d 1c1a b03e 0cbd aebe
000001a0: 33a9 58bd 98fc 063d fd27 d7bd 28f8 5f3d
000001b0: 65cb 433e 6bea 153e 0281 4f3c 9f70 1a3d
000001c0: f6f9 97bc e1b5 89be 67cb cc3d caa9 3c3e
000001d0: bbd9 833d 462e 0abe 3adf 4cbe 57aa 8e3d
000001e0: 5b6f 0c3e 07b5 46be 83df 08be caf7 053e
000001f0: db60 bfbd 3a9c 6fbe 4c14 77bc e952 bd3d
00000200: be0a f83d 63c7 343e 4239 3f3e 00d2 21bd
00000210: 5ffb 37bc 57ce 1cbe c6e6 93be d5a6 30be
00000220: 9975 843e af43 12be ad4b 1dbe 02c3 4d3d
00000230: b05a 863d 776c 44bd f0ed 53bd b074 99bd
00000240: e466 69bd d55c 81be 1c54 5bbe da16 bb3d
00000250: d6a7 8e3c b2cd 53bd 4036 f03d 759c 0c3e
00000260: a815 373e 6030 1abe 0901 ecbd d659 3cbe
00000270: ae49 6cbe a7d2 e5bc ab16 75bd a1c9 aa3d
00000280: 6b9f f83d 4403 683e 7312 1dbe 0296 7bbe
00000290: f3dc cdbd 6db6 253e 1db1 953d 8c97 92be
000002a0: 5f1e 2c3d c296 183e 9d84 09be 3aa1 e73d
000002b0: 2605 f63d 53e6 70be 9033 9d3d cca0 eabd
000002c0: 82a8 4ebe b02e 55be 8453 56be 0911 afbc
000002d0: 93e6 53be ccbf 72be d578 62bd 07a4 84bd
000002e0: 7746 32bd 18ba 453e 7498 2f3e 6a42 1c3e
000002f0: 2655 083e 061e 67be fbec acbc 9f69 dd3d
00000300: f2eb d3bd af42 42be a532 2e3e de78 ca3d
00000310: c68f 74be 4835 c13c 502b 8ebe 12a3 a93d
00000320: dade c13d 5100 39be 775a 26be 67cf a53c
00000330: 0285 0fbd 0f04 27be 73b6 9abe 67c2 313e
00000340: 8835 36be 2645 17bd 2449 903d 995b 79be
00000350: 0468 bebc 6d64 9cbd a862 44be 9080 c93d
00000360: 3a93 343e d35f 783e 1a85 ae3d d446 fe3d
00000370: c9a0 dcbd 0caf 86be 7966 9ebb 62b7 fdbd
00000380: 5e6c d8bd 5a53 4abd b100 173c 3215 683c
00000390: 8510 6fbe d2f1 72bd 5577 8fbe 48f1 a13d
000003a0: 0ece 593e 416f 0ebe c50c 4a3e d583 c03d
000003b0: b2b7 81bd bdf7 143d 892a dd3c 072c 97be
000003c0: 6d7e 93bd ba5a 24be c58b 4abe 738b 97be
000003d0: 4598 7d3e 5069 683d fd9e 093e bb89 233d
000003e0: cb51 43bd 53d1 d73d c201 b0bd f5e5 463b
000003f0: d1fa 0d3d 09e0 a93d 3c0f d0bc 6659 82bd

conv1.bias f4 [32]
0.17731714 0.066841014 -0.18174998 0.066600196 0.32795793 -0.17046024 -0.13678545 -0.059479572
-0.1544818 0.3591986 -0.21506271 0.24747707 0.0014895323 -0.067842074 -0.2588432 0.24620451
-0.08725588 0.07563087 -0.3720946 -0.033758894 0.20198296 -0.1266506 0.31830636 0.21262379
-0.048891015 0.24066874 -0.16610251 0.37856877 0.08556383 -0.03127223 -0.246385 -0.10215524
00000000: a092 353e f1e3 883d ab1c 3abe af65 883d
00000010: 1aea a73e 218d 2ebe 7c11 0cbe daa0 73bd
00000020: 7a30 1ebe e1e8 b73e 6639 5cbe a16a 7d3e
00000030: 693c c33a c9f0 8abd 1987 84be 091d 7c3e
00000040: 36b3 b2bd 5ce4 9a3d 2f83 bebe c446 0abd
00000050: 9fd4 4e3e b2b0 01be 0df9 a23e 0dba 593e
00000060: f241 48bd de71 763e c716 2abe c4d3 c13e
00000070: 173c af3d 4f17 00bd 594c 7cbe c436 d1bd

bn1.weight f4 [32]
0.77199626 0.64869624 1.4788412 0.48818213 1.288436 1.1186938 0.8777162 1.1578496
0.95554376 0.92251974 1.1742773 0.79676884 0.48106483 1.2705088 0.7811792 0.9620166
0.97745734 1.0513815 1.5165621 1.5158957 0.9394615 1.2780137 1.1327938 1.3865187
0.798483 0.9570121 0.80518425 0.5180578 0.7717705 0.67072105 1.6752913 1.0038346
00000000: 8ca1 453f f510 263f ab4a bd3f 02f3 f93e
00000010: 79eb a43f 5c31 8f3f 02b2 603f 6a34 943f
00000020: 849e 743f 412a 6c3f b84e 963f 0bf9 4b3f
00000030: 214e f63e 08a0 a23f 5cfb 473f b846 763f
00000040: a53a 7a3f ab93 863f b51e c23f df08 c23f
00000050: 8d80 703f f495 a33f 63ff 903f 7279 b13f
00000060: 6269 4c3f bffe 743f 8e20 4e3f 709f 043f
00000070: c092 453f 60b4 2b3f f26f d63f a77d 803f

bn1.bias f4 [32]
-0.2051043 -0.4990567 -0.16772811 -0.55469203 -0.18756816 -0.2966219 -0.018274795 -0.23461738
0.070084795 -0.39343944 -0.34253544 -0.0897728 -0.6356195 -0.24344859 -0.33077434 -0.1278484
-0.05479222 -0.2721063 -0.19437824 -0.09600587 -0.28850093 -0.20775495 -0.13298276 -0.11000951
-0.13362563 -0.33784553 -0.24455224 -0.5608657 -0.5566785 -0.6498666 -0.021503812 -0.28257552
00000000: dd06 52be 5c84 ffbe ebc0 2bbe 4c00 0ebf
00000010: de11 40be d3de 97be 06b5 95bc 8a3f 70be
00000020: 9e88 8f3d e570 c9be ce60 afbe cdda b7bd
00000030: f6b7 22bf 964a 79be 415b a9be b1ea 02be
00000040: cf6d 60bd 8451 8bbe 170b 47be ba9e c4bd
00000050: 65b6 93be b7bd 54be a22c 08be aa4c e1bd
00000060: 28d5 08be 17fa acbe e76b 7abe e594 0fbf
00000070: 7b82 0ebf a85d 26bf c328 b0bc bdad 90be

bn1.running_mean f4 [32]
0.59550536 -0.008090761 0.33542198 -0.4685536 0.65603215 -0.18021266 0.034950163 0.17440905
-0.0259043 0.3609797 -0.2263299 0.28355998 -0.3237795 0.3866418 -0.30773225 0.42194873
-0.07278023 0.31294885 -0.03297103 0.4418001 0.17711714 0.13227817 0.9569476 0.49572077
-0.05245779 0.5509958 0.14032418 0.2845041 0.003342878 -0.20027423 0.16774876 -0.0027328846
00000000: 0a73 183f 1c8f 04bc 6ebc ab3e 42e6 efbe
00000010: b9f1 273f ab89 38be e727 0f3d 4998 323e
00000020: 4135 d4bc 55d2 b83e 06c3 67be c62e 913e
00000030: 6dc6 a5be eaf5 c53e 158f 9dbe aa09 d83e
00000040: cd0d 95bd d53a a03e a10c 07bd 9f33 e23e
00000050: 325e 353e ee73 073e 85fa 743f 1dcf fd3e
00000060: fbdd 56bd 100e 0d3f 24b1 0f3e 85aa 913e
00000070: 3014 5b3b b014 4dbe 55c6 2b3e 321a 33bb

bn1.running_var f4 [32]
0.1620641 0.02516833 0.21997336 0.15442856 0.13802932 0.09501242 0.028322682 0.0910521
0.033280894 0.070031635 0.073540404 0.024183039 0.08813795 0.163454 0.056358967 0.027384344
0.07576384 0.10124813 0.121574245 0.17733964 0.08339831 0.0813847 0.27673078 0.07861329
0.07416546 0.0809683 0.13002734 0.020067492 0.048832223 0.05087581 0.14297526 0.08585219
00000000: 22f4 253e d02d ce3c b240 613e 8522 1e3e
00000010: 8f57 0d3e df95 c23d f804 e83c 8679 ba3d
00000020: 8c51 083d bf6c 8f3d 5a9c 963d 821b c63c
00000030: ab81 b43d 7c60 273e a9d8 663d 2255 e03c
00000040: 122a 9b3d 2e5b cf3d ebfb f83d 8698 353e
00000050: bccc aa3d 06ad a63d a8af 8d3e 0100 a13d
00000060: 10e4 973d b5d2 a53d e325 053e 9564 a43c
00000070: 4c04 483d 2763 503d 1b68 123e 46d3 af3d

conv2.weight f4 [64, 32, 3, 3]
-0.36315662 -0.29944137 -0.36404175 0.14104791 0.14600563 -0.15614046 0.087338604 0.16016747
0.07390627 0.06944202 -0.065538935 -0.018171132 -0.10524908 -0.10130489 -0.0077101267 -0.07859773
-0.12617941 0.12792379 -0.15900475 -0.086713955 -0.14950436 -0.12799126 0.1003054 0.19249584
0.021208342 0.09586755 0.09275953 0.10359348 0.11357055 -0.04618601 -0.02044289 0.112407245
0.0055442303 -0.20296158 -0.25607407 0.09497909 -0.022441855 -0.131448 0.1575306 -0.12754808
0.07896511 0.18934903 -0.012678716 -0.09638239 0.06664101 -0.027727073 -0.08998965 0.03957628
-0.11596347 -0.029119043 0.025962744 0.06392661 -0.26513675 0.17776115 -0.052656084 -0.051907394
-0.19710058 0.12972435 0.02644209 -0.095216915 0.043199398 0.10228319 -0.0024290092 0.0629127
-0.0071075265 0.027823547 0.14465736 0.12915587 0.056017175 -0.3762507 -0.4624366 -0.2476016
-0.130122 -0.19825457 -0.1204817 0.03839354 -0.038005345 -0.080232024 0.02451633 -0.055792343
0.11756592 -0.3921043 -0.27374622 -0.40942168 -0.022377357 0.15729141 -0.07681401 0.1281223
0.13531516 0.13886175 -0.05989327 -0.29453698 -0.03731481 -0.12206037 -0.19222783 -0.07747796
-0.28300828 -0.04151035 0.10388826 -0.13741684 0.01024735 0.06998007 0.16467331 -0.12605233
-0.17875879 0.06507987 -0.21572597 -0.08181831 0.08069467 -0.048142254 0.06283458 -0.08007293
-0.05640528 0.05406705 -0.0027348162 -0.25778118 -0.21816428 -0.04649445 -0.2449664 0.16940679
-0.17840903 0.04103195 0.2023341 0.09654779 -0.09296002 0.20291659 -0.1226794 -0.16212302
-0.46626398 0.04079629 0.0811894 -0.12257007 0.13715132 0.059496198 0.059274774 -0.114747874
-0.19064912 -0.26404232 -0.12817137 -0.052498966 0.16040869 0.05824324 -0.015658295 0.0939379
0.10897732 0.057136532 -0.006200905 0.14709763 0.072370775 0.12762386 -0.2665579 -0.15455946
-0.15201807 0.03349756 -0.021330884 0.022873638 0.09175591 0.083645985 0.030117335 -0.3056087
-0.19740431 -0.27361274 -0.07087969 -0.087611824 0.34989113 -0.03276844 0.1715008 0.1301846
-0.17750773 -0.31590426 -0.061192982 0.11384558 0.038045768 0.11088182 -0.046925593 -0.079048686
0.009642316 0.09880226 -0.03796556 -0.15587349 0.116470665 0.024702772 -0.051084295 0.055065595
0.12265357 -0.032515187 -0.3007672 -0.09856341 -0.1372764 -0.04509632 -0.3032109 0.013450287
-0.013605204 -0.123434484 0.06015509 -0.04151117 0.0775786 0.07468148 0.093563735 -0.013135516
-0.007416948 -0.13827993 -0.010194763 0.16289318 0.04182949 0.021784643 0.10645499 0.009992447
-0.15571389 -0.012162328 0.04766047 -0.173865 -0.06633194 0.05888591 -0.028930057 0.17754468
-0.10096903 -0.20885947 -0.1788754 0.19429006 -0.0054253265 -0.28414214 0.097380735 0.13563001
-0.14126526 -0.058750372 0.057520065 0.107433826 0.23589528 0.19453293 0.043770164 -0.037088882
-0.27603352 -0.14835739 -0.024267487 -0.14153218 -0.14500971 0.16985068 -0.025594667 -0.14563973
0.1364415 0.08898043 -0.027873492 0.06686281 0.00053926266 -0.14577177 -0.094316244 -0.04505596
-0.22159672 0.00980248 -0.082633145 -0.13548827 -0.22801417 -0.22190832 -0.2424382 -0.24491492
00000000: aaef b9be 6150 99be ae63 babe dd6e 103e
00000010: 8082 153e 49e3 1fbe 95de b23d f102 243e
00000020: 2c5c 973d 9e37 8e3d 4739 86bd a0db 94bc
00000030: d48c d7bd f078 cfbd 3ba5 fcbb d9f7 a0bd
00000040: 2d35 01be 74fe 023e 24d2 22be 1697 b1bd
00000050: ac17 19be 2410 03be eb6c cd3d a11d 453e
00000060: 1ebd ad3c 3556 c43d b5f8 bd3d d228 d43d
00000070: ad97 e83d 8b2d 3dbd d977 a7bc c535 e63d
00000080: 60ac b53b 29d5 4fbe 241c 83be 6684 c23d
00000090: fbd7 b7bc 4e9a 06be b44f 213e f79b 02be
000000a0: 76b8 a13d b6e4 413e 64ba 4fbc 2164 c5bd
000000b0: 157b 883d e323 e3bc 7e4c b8bd bd1a 223d
000000c0: 417e edbd 0f8b eebc d2af d43c f4eb 823d
000000d0: 01c0 87be 0507 363e e8ad 57bd d99c 54bd
000000e0: bcd4 49be 76d6 043e 159d d83c 1601 c3bd
000000f0: daf1 303d d979 d13d 0330 1fbb 60d8 803d
00000100: 41e6 e8bb 35ee e33c 0f21 143e 7041 043e
00000110: 4472 653d efa3 c0be 7dc4 ecbe 468b 7dbe
00000120: b43e 05be 3f03 4bbe 1cbf f6bd 8b42 1d3d
00000130: 7eab 1bbd b050 a4bd 78d6 c83c 8386 64bd
00000140: 67c6 f03d e5c1 c8be 7728 8cbe b89f d1be
00000150: b850 b7bc 0011 213e aa50 9dbd 7e32 033e
00000160: 0f90 0a3e c631 0e3e a552 75bd 8dcd 96be
00000170: 6ad7 18bd cafa f9bd 5fd7 44be c4ac 9ebd
00000180: 76e6 90be c206 2abd 5ec3 d43d 00b7 0cbe
00000190: 80e4 273c b651 8f3d 1fa0 283e dd13 01be
000001a0: 8b0c 37be 9848 853d 45e7 5cbe 5c90 a7bd
000001b0: 3f43 a53d d030 45bd 6baf 803d 47fd a3bd
000001c0: 3909 67bd 6975 5d3d 9a3a 33bb e5fb 83be
000001d0: 7566 5fbe f770 3ebd 79d8 7abe f978 2d3e
000001e0: dbb0 36be 1e11 283d ac30 4f3e d9ba c53d
000001f0: d361 bebd 5ec9 4f3e 563f fbbd 9403 26be
00000200: 27ba eebe 031a 273d a146 a63d 0406 fbbd
00000210: 6571 0c3e 49b2 733d 1bca 723d ef00 ebbd
00000220: 8639 43be 8e30 87be 5b3f 03be 2809 57bd
00000230: 2d42 243e 7790 6e3d d345 80bc 8462 c03d
00000240: 802f df3d ff07 6a3d f630 cbbb c3a0 163e
00000250: 2137 943d d4af 023e 477a 88be d644 1ebe
00000260: a0aa 1bbe bd34 093d 1bbe aebc 7f61 bb3c
00000270: 86ea bb3d 964e ab3d a1b8 f63c be78 9cbe
00000280: 5b24 4abe f816 8cbe 5f29 91bd d46d b3bd
00000290: ee24 b33e 3338 06bd e89d 2f3e 1d4f 053e
000002a0: 96c4 35be 34be a1be 7ea5 7abd df27 e93d
000002b0: e1d5 1b3d 0216 e33d 0d35 40bd 47e4 a1bd
000002c0: cefa 1d3c d758 ca3d c681 1bbd 4d9d 1fbe
000002d0: 2c88 ee3d 785d ca3c c43d 51bd 768c 613d
000002e0: cb31 fb3d a52e 05bd 29fe 99be 9ddb c9bd
000002f0: 2f92 0cbe ebb6 38bd 763e 9bbe 985e 5c3c
00000300: 5de8 5ebc 38cb fcbd 2f65 763d 9e07 2abd
00000310: 87e1 9e3d 9bf2 983d 589e bf3d 5936 57bc
00000320: df09 f3bb 4199 0dbe ef07 27bc 78cd 263e
00000330: 6655 2b3d b575 b23c 1305 da3d 5cb7 233c
00000340: 7673 1fbe 8044 47bc a037 433d ab09 32be
00000350: 0ad9 87bd 5a32 713d bafe ecbc 46ce 353e
00000360: dac8 cebd 42df 55be 1d2b 37be f9f3 463e
00000370: f0c6 b1bb 147b 91be 8d6f c73d 98e2 0a3e
00000380: d7a7 10be 3ba4 70bd 299a 6b3d 4406 dc3d
00000390: 888e 713e a433 473e 5848 333d 83ea 17bd
000003a0: 4454 8dbe 00eb 17be 9ccc c6bc d0ed 10be
000003b0: 6d7d 14be 56ed 2d3e e8ab d1bc 9522 15be
000003c0: 52b7 0b3e 5f3b b63d f356 e4bc 5eef 883d
000003d0: 4e5d 0d3a 3245 15be e028 c1bd 998c 38bd
000003e0: 40ea 62be 959a 203c 913b a9bd 70bd 0abe
000003f0: 8c7c 69be ef3b 63be b841 78be faca 7abe

conv2.bias f4 [64]
-0.0041178665 -0.016722003 -0.060991958 -0.030390322 0.06331453 -0.021942226 0.050195828 -0.051772553
0.02670444 -0.028942477 -0.05775038 0.050871797 0.03903619 -0.02202684 -0.04680523 0.018152853
-0.03636855 0.01958919 0.039968383 0.009983902 0.018988943 -0.019370079 -0.011725355 0.015820999
0.049474318 -0.030918142 0.018291598 -0.01871589 -0.036209416 0.015640125 -0.00085920666 -0.013476251
-0.014855014 0.020643696 0.054089062 -0.032520972 -0.050291333 -0.017876213 0.044750836 -0.047130354
-0.073914275 -0.014429907 -0.046402097 0.04854618 -0.054355014 -0.010261426 -0.050040983 0.00092858827
-0.052473288 -0.064296104 0.042084403 0.022579072 0.015079144 0.020145325 -0.048981354 0.047577724
-0.004034744 -0.005823714 0.030477574 -0.066198155 0.04678577 -0.0135652665 -0.048981674 0.027340818
00000000: 2bef 86bb 95fc 88bc b4d2 79bd 20f5 f8bc
00000010: 0cab 813d 2fc0 b3bc 249a 4d3d 750f 54bd
00000020: 45c3 da3c c618 edbc aa8b 6cbd f25e 503d
00000030: 69e4 1f3d a271 b4bc d7b6 3fbd 4bb5 943c
00000040: 30f7 14bd 8279 a03c e3b5 233d 8593 233c
00000050: b38e 9b3c 00ae 9ebc b41b 40bc 0a9b 813c
00000060: 95a5 4a3d 0b48 fdbc 43d8 953c 1152 99bc
00000070: 5350 14bd b81f 803c 623c 61ba 7ecb 5cbc
00000080: 7262 73bc f81c a93c 7e8c 5d3d b634 05bd
00000090: 49fe 4dbd 2371 92bc a74c 373d c20b 41bd
000000a0: 5e60 97bd 6b6b 6cbc 2010 3ebd 5cd8 463d
000000b0: 5da3 5ebd 8a1f 28bc c6f7 4cbd 816c 733a
000000c0: 3bee 56bd adad 83bd b260 2c3d bff7 b83c
000000d0: 840e 773c cf07 a53c aca0 48bd dce0 423d
000000e0: e335 84bb dbd4 bebb 1bac f93c e692 87bd
000000f0: 70a2 3f3d da40 5ebc 02a1 48bd daf9 df3c

bn2.weight f4 [64]
0.5414942 0.6619502 0.5702927 0.60947603 0.6256301 0.58325315 0.62149954 0.62390095
0.53480124 0.60195804 0.5302364 0.6655483 0.42747262 0.49836355 0.609042 0.68112177
0.401125 0.59350485 0.49826306 0.58913976 0.6434181 0.6202372 0.5542092 0.52873147
0.62908626 0.713147 0.50537515 0.51527023 0.6178988 0.554711 0.6342833 0.6056357
0.49817932 0.6688417 0.65732336 0.6527174 0.63000834 0.7119278 0.6532913 0.60437965
0.42762506 0.54785705 0.5124659 0.56014234 0.5698705 0.5881909 0.5636747 0.520935
0.5379349 0.6986699 0.58625597 0.50182724 0.57404697 0.5270951 0.63295203 0.6210698
0.5433062 0.7106898 0.7324877 0.5902564 0.6080567 0.6402642 0.62616783 0.5642679
00000000: 5d9f 0a3f 9175 293f b4fe 113f 9f06 1c3f
00000010: 4b29 203f 1450 153f 981a 1f3f f9b7 1f3f
00000020: bce8 083f ec19 1a3f 93bd 073f 6061 2a3f
00000030: b1dd da3e 8229 ff3e 2dea 1b3f ff5d 2e3f
00000040: 4260 cd3e efef 173f 561c ff3e ddd1 163f
00000050: 0cb7 243f ddc7 1e3f a7e0 0d3f f25a 073f
00000060: cc0b 213f cd90 363f 4460 013f c0e8 033f
00000070: 9e2e 1e3f 8a01 0e3f 6460 223f f10a 1b3f
00000080: 5c11 ff3e 3639 2b3f 5846 283f 7d18 273f
00000090: 3a48 213f e640 363f 193e 273f a0b8 1a3f
000000a0: acf1 da3e 5c40 0c3f f730 033f 7d65 0f3f
000000b0: 08e3 113f ae93 163f fc4c 103f ff5b 053f
000000c0: 1ab6 093f 08dc 323f df14 163f c077 003f
000000d0: bef4 123f b4ef 063f 2509 223f 6efe 1e3f
000000e0: 1d16 0b3f c4ef 353f 5084 3b3f 0b1b 173f
000000f0: 9ba9 1b3f 5be8 233f 894c 203f dc73 103f

bn2.bias f4 [64]
-0.5697879 -0.6664308 -0.6216489 -0.6666384 -0.5895234 -0.60236484 -0.5705424 -0.51709497
-0.56983376 -0.5984536 -0.5343522 -0.6451496 -0.6637051 -0.58930016 -0.5990615 -0.5989611
-0.8564689 -0.50101054 -0.450967 -0.46782297 -0.5574363 -0.64918 -0.48845103 -0.56381696
-0.5622118 -0.6429606 -0.6196199 -0.6777861 -0.5813513 -0.79150915 -0.6245341 -0.53652465
-0.72004354 -0.6301574 -0.5838561 -0.5391965 -0.57927287 -0.63704616 -0.5890034 -0.7990735
-0.6586039 -0.69894546 -0.58873165 -0.76449966 -0.47146538 -0.63686097 -0.56881154 -0.59713596
-0.54907036 -0.67165005 -0.6128109 -0.684228 -0.6792563 -0.5579461 -0.5632526 -0.6785393
-0.57534844 -0.6160537 -0.67026514 -0.55227363 -0.60127157 -0.5766748 -0.56976193 -0.5376952
00000000: 9fdd 11bf 359b 2abf 6224 1fbf d0a8 2abf
00000010: 01eb 16bf 9534 1abf 110f 12bf 5660 04bf
00000020: a0e0 11bf 4134 19bf 4ecb 08bf 8628 25bf
00000030: 94e8 29bf 60dc 16bf 185c 19bf 8455 19bf
00000040: 8c41 5bbf 3a42 00bf 26e5 e6be 7e86 efbe
00000050: 25b4 0ebf a930 26bf 4116 fabe 4f56 10bf
00000060: 1ded 0fbf 1199 24bf 699f 1ebf 6483 2dbf
00000070: 70d3 14bf 58a0 4abf 77e1 1fbf ae59 09bf
00000080: c654 38bf ff51 21bf 9877 15bf c808 0abf
00000090: 3a4b 14bf 7515 23bf edc8 16bf 1590 4cbf
000000a0: 449a 28bf 17ee 32bf 1eb7 16bf 40b6 43bf
000000b0: e963 f1be 5209 23bf a29d 11bf e7dd 18bf
000000c0: e08f 0cbf 42f1 2bbf 2de1 1cbf 9129 2fbf
000000d0: bee3 2dbf 8ed5 0ebf 5331 10bf c0b4 2dbf
000000e0: 094a 13bf b2b5 1dbf 7f96 2bbf ce61 0dbf
000000f0: efec 19bf f6a0 13bf ebdb 11bf 65a6 09bf

bn2.running_mean f4 [64]
-3.3052068 -1.123167 -1.9869852 -1.4340416 -0.4142676 -3.2102513 -2.9671304 -3.7411058
-2.8544197 -5.720096 -1.6125544 -1.4306794 -0.14714247 -2.5725057 -3.4748502 -2.9064078
-0.15591758 -2.3410087 -6.823397 -3.0243647 -3.5544782 0.49512905 -2.523384 -1.6739234
-1.697573 -2.2547016 -4.7298927 -2.1363049 -1.5318023 -1.1576002 -0.31267995 -1.8313992
-1.0199602 -0.9235557 -2.0086565 -3.552078 -1.9747171 -2.523399 -2.851286 -0.5755674
0.3660571 -0.67306656 -1.1676953 -1.9776044 -3.046261 -1.9098002 -2.7469842 -3.090462
-3.9371696 -1.4922101 -0.8699687 0.17368141 -4.2401185 -1.9689164 -1.7648628 0.4803347
-0.7035404 -3.410421 -2.2618213 -3.3818164 0.52781343 -4.745742 -0.03091669 -2.8630385
00000000: 8288 53c0 f0c3 8fbf 8855 febf ad8e b7bf
00000010: e21a d4be c274 4dc0 77e5 3dc0 476e 6fc0
00000020: d0ae 36c0 070b b7c0 2f68 cebf 8120 b7bf
00000030: 84ac 16be efa3 24c0 f263 5ec0 9602 3ac0
00000040: dca8 1fbe 16d3 15c0 4559 dac0 318f 41c0
00000050: 927c 63c0 8e81 fd3e 207f 21c0 1f43 d6bf
00000060: 124a d9bf 084d 10c0 485b 97c0 38b9 08c0
00000070: 1912 c4bf 3e2c 94bf 9617 a0be 4a6b eabf
00000080: 0e8e 82bf 256e 6cbf d48d 00c0 3f55 63c0
00000090: 88c3 fcbf 5f7f 21c0 787b 36c0 6358 13bf
000000a0: d66b bb3e 174e 2cbf 0a77 95bf 2422 fdbf
000000b0: f1f5 42c0 5574 f4bf 97ce 2fc0 21ca 45c0
000000c0: 96fa 7bc0 be00 bfbf 45b6 5ebf 8ad9 313e
000000d0: 0daf 87c0 7405 fcbf 06e7 e1bf 6eee f53e
000000e0: 391b 34bf 5644 5ac0 aec1 10c0 ae6f 58c0
000000f0: c81e 073f 1edd 97c0 0045 fdbc 063c 37c0

bn2.running_var f4 [64]
15.109674 12.956744 9.680538 14.3736515 12.809131 12.064978 15.359181 25.102564
10.844095 19.512262 13.519369 18.356117 6.6751895 7.85847 21.021278 10.415135
4.4118557 15.969845 11.741027 30.271965 11.107078 12.156941 13.33008 14.523727
19.043835 15.051871 12.239649 8.530907 6.52129 8.41039 16.431128 15.814395
5.584823 14.255209 17.439445 16.708122 12.727012 15.81313 13.804081 8.375705
11.55077 9.923572 14.107065 10.275119 26.908842 14.766548 13.492633 19.458498
13.773154 15.088345 10.8656025 10.746996 8.703382 16.206541 12.558656 10.603854
14.544424 7.763502 15.83712 21.755295 14.323747 17.146643 20.02857 22.222836
00000000: 3ac1 7141 d34e 4f41 7ce3 1a41 7afa 6541
00000010: 33f2 4c41 260a 4141 35bf 7541 0dd2 c841
00000020: 6a81 2d41 1d19 9c41 564f 5841 54d9 9241
00000030: 279b d540 9678 fb40 942b a841 65a4 2641
00000040: ec2d 8d40 7c84 7f41 3fdb 3b41 fc2c f241
00000050: 97b6 3141 d582 4241 0248 5541 3061 6841
00000060: c659 9841 77d4 7041 9ad5 4341 987e 0841
00000070: 68ae d040 f590 0641 f372 8341 c307 7d41
00000080: dfb6 b240 5615 6441 fc83 8b41 3caa 8541
00000090: d7a1 4b41 9502 7d41 84dd 5c41 e302 0641
000000a0: f4cf 3841 f3c6 1e41 8ab6 6141 e366 2441
000000b0: 4f45 d741 c843 6c41 d3e1 5741 01ab 9b41
000000c0: d75e 5c41 dc69 7141 82d9 2d41 b2f3 2b41
000000d0: 0d41 0b41 ffa6 8141 41f0 4841 63a9 2941
000000e0: f6b5 6841 9c6e f840 d864 7d41 d80a ae41
000000f0: 112e 6541 532c 8941 833a a041 5ec8 b141

fc1.weight f4 [128, 1600]
-0.024340212 0.03662694 0.07406125 0.033465195 0.054160487 0.019445391 0.19086695 0.20697986
0.10966713 0.13933553 -0.18593515 -0.119804785 0.02090742 0.0057181916 -0.055298172 -0.0419076
-0.16519324 -0.07014829 -0.09804435 -0.17236258 -0.16889152 -0.0076821144 -0.051419485 -0.06847646
0.057506707 0.0405705 0.042206593 -0.1798342 -0.09700334 -0.08473254 -0.24434687 0.06236992
-0.0622243 -0.22684623 0.04160226 -0.09413228 -0.06370517 -0.058093205 -0.15663818 0.17647053
0.10160717 -0.03896953 0.31335837 -0.034497797 0.1804133 -0.01703939 0.027391935 -0.048054174
0.034620732 -0.092567675 -0.0011315984 -0.10526322 -0.03527844 -0.057506062 -0.016717592 -0.04897151
0.0022937946 -0.09633601 -0.016039416 0.0056487946 -0.11595043 -0.09467478 -0.13766834 0.22434549
0.006884022 0.04339541 0.14267115 -0.0378007 -0.037905827 0.08898975 -0.06239492 0.09256943
0.008702785 0.037664663 -0.019669937 -0.025928665 0.073544815 0.009966761 0.0489287 0.07813904
-0.09472984 -0.0040107807 0.132275 0.09670397 -0.0706518 -0.16064245 0.03242148 0.035460763
-0.28856343 -0.16892096 0.041536998 -0.082383886 0.13321269 0.23313586 0.063038684 0.06879289
-0.07768788 -0.025421478 0.061740585 -0.030299854 0.018117387 -0.059997607 0.20610043 0.13278595
-0.03155244 -0.07255528 0.06334994 -0.0004323573 0.054229453 -0.14664519 -0.0010742451 0.14649902
0.14254978 0.031169396 0.022730561 0.06809144 0.23698053 -0.03556458 -0.08376097 0.05012354
0.077346124 0.07123012 0.068178594 0.0056266575 -0.07503616 0.045681536 0.10067571 0.09132969
0.10612583 0.20426907 -0.01266634 0.037221313 0.33772382 0.29143932 0.113644235 -0.12213401
0.09085415 0.03664229 -0.14813745 0.06458176 0.006698538 0.016395407 0.1888947 0.08752907
0.057009663 -0.06456426 -0.013844297 -0.08232502 0.038287133 -0.08262795 0.06849663 -0.040978022
-0.04745891 -0.021356134 -0.17273812 0.031017782 0.07377885 -0.003659172 -0.28877556 -0.20252776
0.10458516 0.055621807 -0.037419792 0.1120089 0.046688963 0.024457902 -0.0659346 0.17234962
0.22349115 0.27230534 -0.064129025 -0.05857341 -0.060075015 0.05038482 0.08275033 -0.153101
-0.13159835 -0.38629073 -0.28302267 -0.29678807 0.01948091 -0.18310802 -0.117234625 7.4078955e-05
-0.037707735 0.025272464 0.0632796 -0.081980884 0.28766236 -0.043203134 -0.027935755 0.07242991
0.03792895 -0.068510644 -0.027592205 0.024882847 0.029449584 0.057654314 0.19069816 0.0794469
0.016774552 0.12534934 0.032290056 0.015656594 0.08473572 0.020589566 -0.013528104 -0.10281303
0.15608558 0.08760488 0.16926572 0.30194825 0.114338465 0.08757646 0.102028884 0.04015535
0.014792411 0.022158368 0.01919299 0.07167176 0.09355564 0.033611894 0.023242705 0.070447505
-0.106186 0.051161017 -0.025581036 -0.13910246 0.061221067 0.05858982 -0.019736448 0.115705624
-0.06901629 0.13882335 0.08456543 -0.01581341 0.20586427 -0.050401878 -0.07835338 0.049315903
0.05197691 -0.025703682 -0.09264131 -0.10184949 0.0056775957 -0.0062175347 -0.0047164145 -0.059326526
0.09285632 0.047322318 0.21450005 -0.004535267 0.07992803 0.012168276 0.23924142 -0.057162933
00000000: 2065 c7bc 2106 163d 6dad 973d cd12 093d
00000010: 63d7 5d3d f14b 9f3c a072 433e 87f2 533e
00000020: 2999 e03d f9ad 0e3e c965 3ebe 365c f5bd
00000030: 0a46 ab3c ab5f bb3b 5680 62bd 4ea7 2bbd
00000040: 6b28 29be e8a9 8fbd 7acb c8bd d17f 30be
00000050: e6f1 2cbe 3fba fbbb 3d9d 52bd 633d 8cbd
00000060: 278c 6b3d 412d 263d d2e0 2c3d 7526 38be
00000070: b0a9 c6bd 4188 adbd 1136 7abe 9a77 7f3d
00000080: e8de 7ebd 614a 68be 2267 2a3d 6dc8 c0bd
00000090: db77 82bd 24f3 6dbd c265 20be b1b4 343e
000000a0: 6c17 d03d 849e 1fbd 8270 a03e 904d 0dbd
000000b0: 44be 383e 3196 8bbc 0d65 e03c 74d4 44bd
000000c0: 78ce 0d3d 1f94 bdbd 2452 94ba 3e94 d7bd
000000d0: 2080 10bd 7a8b 6bbd 55f3 88bc 5a96 48bd
000000e0: 7d53 163b d04b c5bd 1865 83bc 8619 b93b
000000f0: 6b77 edbd dae4 c1bd eef8 0cbe d3ba 653e
00000100: 5d93 e13b 63bf 313d 6318 123e e8d4 1abd
00000110: 2443 1bbd 4240 b63d d191 7fbd 0b95 bd3d
00000120: 2096 0e3c 4346 1a3d d922 a1bc 5a68 d4bc
00000130: aa9e 963d a04b 233c 7669 483d 5c07 a03d
00000140: b801 c2bd de6c 83bb 1973 073e bb0c c63d
00000150: e4b1 90bd 747f 24be 63cc 043d 4e3f 113d
00000160: 96be 93be 9ef9 2cbe b322 2a3d e2b8 a8bd
00000170: e868 083e 2bbb 6e3e 6d1a 813d 49e3 8c3d
00000180: d31a 9fbd b440 d0bc b2e3 7c3d 6637 f8bc
00000190: ea6a 943c 0dc0 75bd fe0b 533e 0af9 073e
000001a0: 223d 01bd dd97 94bd 9dbd 813d 04ae e2b9
000001b0: b41f 5e3d 282a 16be afcd 8cba d703 163e
000001c0: 92f8 113e f656 ff3c 7135 ba3c 8673 8b3d
000001d0: 06ab 723e 2aac 11bd df8a abbd 574e 4d3d
000001e0: a567 9e3d 19e1 913d 38a1 8b3d d35f b83b
000001f0: 8fac 99bd 901c 3b3d 112f ce3d 0f0b bb3d
00000200: 8058 d93d e92b 513e 7b86 4fbc 6075 183d
00000210: 23ea ac3e 8937 953e 4fbe e83d 6521 fabd
00000220: be11 ba3d 3a16 163d 58b1 17be 7143 843d
00000230: 697f db3b a94f 863c 9d6d 413e 7142 b33d
00000240: f782 693d 443a 84bd 31d3 62bc 059a a8bd
00000250: f8d2 1c3d d838 a9bd f647 8c3d 92d8 27bd
00000260: 4664 42bd 0ff3 aebc 43e2 30be 0119 fe3c
00000270: 5e19 973d b8ce 6fbb 64da 93be 7063 4fbe
00000280: bf30 d63d b1d3 633d 7f45 19bd ec64 e53d
00000290: ed3c 3f3d f05b c83c b808 87bd 6b7c 303e
000002a0: ddda 643e 9b6b 8b3e 1456 83bd acea 6fbd
000002b0: 3811 76bd 5060 4e3d 0179 a93d 82c6 1cbe
000002c0: b8c1 06be e6c7 c5be 59e8 90be 9bf4 97be
000002d0: 6e96 9f3c ab80 3bbe b518 f0bd d65a 9b38
000002e0: 6d73 1abd 3308 cf3c bc98 813d 98e5 a7bd
000002f0: 7b48 933e c5f5 30bd 86d9 e4bc 2256 943d
00000300: 635b 1b3d 4f4f 8cbd 0c09 e2bc 1dd7 cb3c
00000310: 4140 f13c ee26 6c3d 6146 433e 0eb5 a23d
00000320: c96a 893c 945b 003e 9442 043d 4242 803c
00000330: ec89 ad3d 73ab a83c fba4 5dbc a38f d2bd
00000340: e6d4 1f3e 306a b33d fe53 2d3e f698 9a3e
00000350: 492a ea3d 495b b33d 85f4 d03d f079 243d
00000360: de5b 723c 7785 b53c 9e3a 9d3c a5c8 923d
00000370: 199a bf3d a0ac 093d 7c67 be3c c846 903d
00000380: 0c78 d9bd 378e 513d 528f d1bc e070 0ebe
00000390: f1c2 7a3d e1fb 6f3d 55ae a1bc 12f7 ec3d
000003a0: 6a58 8dbd b527 0e3e a430 ad3d 208b 81bc
000003b0: 15ce 523e 3372 4ebd bd77 a0bd 79ff 493d
000003c0: bee5 543d 8790 d2bc baba bdbd 7796 d0bd
000003d0: 200b ba3b 76bc cbbb 278c 9abb 5f00 73bd
000003e0: 742b be3d 0cd5 413d e7a5 5b3e 949c 94bb
000003f0: 4fb1 a33d 735d 473c b4fb 743e ae23 6abd

fc1.bias f4 [128]
0.032167863 -0.05079581 0.0027133648 0.0142787965 -0.066523835 0.13408774 0.03567345 -0.017455267
0.017256241 0.13093509 0.074867025 0.10500556 -0.10717937 -0.0007161302 0.05917602 -0.092830494
-0.06681759 -0.016838215 -0.062685594 0.07688678 -0.0019516972 -0.007618852 -0.05947157 0.09274857
-0.1377389 -0.0659329 0.08170217 -0.059727006 -0.017330311 -0.030827988 -0.051419765 -0.078851625
-0.052451875 -0.009290109 0.020567562 -0.009869306 0.09066568 -0.06867568 -0.034140605 -0.124869294
-0.0536415 -0.020370757 -0.0024729974 0.09454572 0.11720011 0.036902435 0.0045613437 -0.053102635
0.062179394 0.07803397 0.06330676 -0.048213653 -0.04664901 0.1211151 -0.04384698 0.05115625
-0.015302805 -0.10835496 -0.013965889 -0.1662531 -0.072396606 0.039353862 -0.028343748 -0.0056153787
0.00024068251 -0.0641416 -0.009862807 0.0528666 0.033461243 -0.05014779 0.022370543 -0.061779376
0.14527436 0.023369083 -0.056116626 -0.013915325 -0.019875644 -0.057371616 0.009365436 0.049167607
0.15575948 0.090181254 0.09431441 -0.07053802 -0.11632677 -0.027735427 0.073315956 0.09629996
-0.025968965 0.0223013 -0.08103737 -0.10573154 0.06476464 -0.04770249 -0.19154958 0.061813816
0.039875843 0.04299872 -0.034046713 0.028023697 -0.08405625 -0.07820239 -0.0632778 -0.056231536
0.12488043 0.054901652 0.041075997 0.04728037 -0.030016461 -0.03337076 -0.009643446 0.011685673
0.0082005 0.06825119 0.1157329 0.06635168 0.04708891 0.07110984 -0.064054154 0.09527928
0.0382903 -0.025675803 -0.0038565162 0.016057217 -0.0020907007 0.012349754 0.13049798 0.03826001
00000000: 73c2 033d 440f 50bd b5d2 313b 9df1 693c
00000010: a63d 88bd 4c4e 093e 531e 123d 59fe 8ebc
00000020: f65c 8d3c d913 063e e253 993d 280d d73d
00000030: dc80 dbbd afba 3bba 8e62 723d ea1d bebd
00000040: a9d7 88bd 4cf0 89bc 4e61 80bd d176 9d3d
00000050: 17d0 ffba 90a7 f9bb 7698 73bd f6f2 bd3d
00000060: 6d0b 0dbe d407 87bd 7853 a73d 4ea4 74bd
00000070: 4cf8 8dbc fa8a fcbc 889d 52bd f67c a1bd
00000080: c7d7 56bd 8b35 18bc 4e7d a83c dfb2 21bc
00000090: eeae b93d d6a5 8cbd 05d7 0bbd 79bb ffbd
000000a0: 31b7 5bbd 93e0 a6bc 0312 22bb 30a1 c13d
000000b0: 9c06 f03d 0227 173d 5377 953b 2682 59bd
000000c0: d2af 7e3d 46d0 9f3d f9a6 813d ae7b 45bd
000000d0: 0813 3fbd 320b f83d e498 33bd 3789 513d
000000e0: 9eb8 7abc 35e9 ddbd 2fd1 64bc 413e 2abe
000000f0: ac44 94bd 8431 213d 2631 e8bc 3601 b8bb
00000100: b85f 7c39 ac5c 83bd 9c97 21bc a68a 583d
00000110: a80e 093d c567 4dbd 6e42 b73c 5f0c 7dbd
00000120: cdc2 143e 8570 bf3c 8cda 65bd 1afd 63bc
00000130: 3fd2 a2bc 80fe 6abd 7c71 193c f963 493d
00000140: 6a7f 1f3e f3b0 b83d ea27 c13d 3d76 90bd
00000150: bb3c eebd 6835 e3bc ad26 963d ea38 c53d
00000160: debc d4bc 37b1 b63c ecf6 a5bd c789 d8bd
00000170: 53a3 843d b063 43bd 9325 44be 7c30 7d3d
00000180: da54 233d 6d1f 303d 9174 0bbd f491 e53c
00000190: af25 acbd 9328 a0bd cb97 81bd 0a53 66bd
000001a0: 50c1 ff3d 8ee0 603d 4e3f 283d 10a9 413d
000001b0: 15e5 f5bc c7af 08bd 8bff 1dbc 4475 3f3c
000001c0: 645b 063c 48c7 8b3d 5f05 ed3d 64e3 873d
000001d0: 4de0 403d 09a2 913d d32e 83bd c821 c33d
000001e0: 4ad6 1c3d 1056 d2bc 9bbd 7cbb 6d8a 833c
000001f0: 2304 09bb 9f56 4a3c 43a1 053e 87b6 1c3d

fc2.weight f4 [10, 128]
0.09549071 0.12519307 -0.01659676 0.13294101 0.12819798 0.17594914 0.07641009 0.17372683
0.0202803 -0.09766792 0.009531458 0.1271633 0.019934034 -0.04419841 0.086343996 -0.16921367
-0.20612419 0.12579761 0.14182344 0.19035636 -0.13714486 0.053750455 0.12682098 -0.15724075
-0.0629832 -0.021607997 0.18657577 -0.21683122 -0.044837754 0.13741684 -0.041549742 0.13414332
-0.2482017 0.12889455 0.12558451 -0.050481815 -0.060464486 -0.15387449 0.18126151 -0.13932878
0.08594612 0.103558555 -0.026756905 0.049950175 -0.017642641 0.0007646825 -0.19763018 0.062289555
0.025588747 0.09830797 -0.109122545 0.1001491 -0.1365119 0.10579853 -0.18525268 -0.05944805
-0.2682205 -0.101491556 -0.15965782 -0.042630315 0.118801095 -0.108640194 -0.11366815 -0.029646087
0.11841474 -0.15816009 -0.18464427 0.005999622 -0.04120224 -0.08053262 0.048188217 -0.17118222
0.004313431 -0.035641614 -0.10231779 0.10040194 0.11612436 0.031501036 0.03723318 0.021283777
0.08270403 0.024863362 0.081608005 -0.07249986 0.11829381 -0.1753482 -0.053874187 0.010676341
-0.07742785 -0.075079255 -0.067939185 0.036929537 0.1661819 0.1325498 -0.056503247 0.31022745
0.123985834 0.017415242 0.1329327 0.08292148 0.035455335 -0.050570745 0.04901149 -0.2070572
0.27090392 0.13262548 0.17079298 0.034299467 0.01243748 -0.08152888 -0.08632125 0.07224764
0.16451778 0.061169837 0.22989196 0.11166753 -0.2458447 -0.09403395 -0.03541134 -0.12443069
0.20600413 0.27666098 -0.107370034 -0.13177748 -0.120315254 0.017594613 -0.111350365 0.06331117
-0.09983464 0.13085651 0.16992629 -0.08247241 -0.10897121 0.26690942 0.14944491 -0.08302739
0.079865165 0.15524022 0.06684359 0.09098239 -0.28015432 0.09809442 0.12161857 -0.1573208
0.05311172 0.1331626 -0.036441967 0.07361638 0.14081699 -0.20083418 -0.17609194 0.12103215
-0.07645562 -0.0501277 -0.07559068 -0.13552406 0.25443158 -0.059224725 0.31000394 -0.04714832
0.02353765 -0.09866387 -0.12738597 -0.103288494 0.113806576 0.09440245 -0.102246985 -0.16421641
-0.22975151 0.025441734 -0.13269465 -0.008269412 0.14691645 0.12972523 0.08093995 -0.15805377
0.13236241 0.114195906 0.103558145 -0.06274567 -0.13006094 0.15651964 0.05533126 0.17171633
-0.053344574 -0.08895722 -0.10535588 0.0059687807 -0.08619269 0.04265161 0.13616884 0.037707396
0.05658977 0.08695811 0.09170523 0.11789803 0.17321871 -0.09961177 0.11359674 -0.067389585
0.36634052 0.123705655 0.016014121 -0.10020414 0.13992494 -0.20586152 0.0042332225 0.097866885
0.10505355 0.13390186 0.16612108 0.051994402 -0.058791973 0.09227593 0.06364858 0.17501472
-0.11886896 0.10289873 0.07620793 -0.10261295 -0.104574025 -0.031636234 -0.2030605 -0.040189546
0.056171373 0.07711595 -0.06346571 0.052143097 0.041223355 -0.48994195 -0.14149271 -0.020631287
0.21190862 -0.10435029 0.17526774 0.050405946 -0.15881927 0.115250036 0.12734981 -0.12714621
-0.07146074 -0.21846876 0.11587411 0.09614346 0.07011945 -0.073123164 -0.07722874 0.21271484
0.09226395 -0.08964168 0.08964868 0.057497934 0.199469 -0.037756626 0.09100235 0.11901131
00000000: a290 c33d 9d32 003e eef5 87bc b021 083e
00000010: 5546 033e 032c 343e e57c 9c3d 72e5 313e
00000020: df22 a63c 1e06 c8bd d529 1c3c 1937 023e
00000030: b34c a33c 6409 35bd 1fd5 b03d 5946 2dbe
00000040: 3812 53be 17d1 003e 2a3a 113e c7ec 423e
00000050: b46f 0cbe 7029 5c3d 5cdd 013e b803 21be
00000060: 56fd 80bd 4103 b1bc b80d 3f3e 0109 5ebe
00000070: cba7 37bd 00b7 0c3e 1030 2abd de5c 093e
00000080: 9628 7ebe effc 033e 3a99 003e 05c6 4ebd
00000090: 9ca9 77bd 4691 1dbe 9e9c 393e 34ac 0ebe
000000a0: 8504 b03d 8216 d43d 4c31 dbbc 8e98 4c3d
000000b0: 4d87 90bc f974 483a 915f 4abe 5523 7f3d
000000c0: 7e9f d13c b055 c93d a47b dfbd f91a cd3d
000000d0: c7c9 0bbe e6ac d83d e1b2 3dbe cc7f 73bd
000000e0: 3354 89be ceda cfbd 577d 23be 209d 2ebd
000000f0: fd4d f33d c07e debd d9ca e8bd 5adc f2bc
00000100: 6d83 f23d b8f4 21be 6313 3dbe 7a98 c43b
00000110: aec3 28bd 49ee a4bd 0261 453d 644a 2fbe
00000120: af57 8d3b f1fc 11bd fd8b d1bd 889f cd3d
00000130: 9cd2 ed3d 3b07 013d d281 183d 515b ae3c
00000140: bb60 a93d 40ae cb3c 1922 a73d ce7a 94bd
00000150: 0644 f23d 7b8e 33be 2eab 5cbd d2eb 2e3c
00000160: 7e92 9ebd 27c3 99bd b323 8bbd 6d43 173d
00000170: 972b 2a3e 23bb 073e f36f 67bd 22d6 9e3e
00000180: 49ec fd3d 69aa 8e3c 821f 083e bdd2 a93d
00000190: 9d39 113d 4523 4fbd 46c0 483d cd06 54be
000001a0: ebb3 8a3e f9ce 073e 5be4 2e3e 997d 0c3d
000001b0: 92c6 4b3c 9df8 a6bd 32c9 b0bd 92f6 933d
000001c0: 5977 283e 398d 7a3d cc68 6b3e f2b1 e43d
000001d0: b7be 7bbe df94 c0bd 7b0b 11bd 85d5 febd
000001e0: bff2 523e 82a6 8d3e d2e4 dbbd adf0 06be
000001f0: d867 f6bd 9422 903c a90b e4bd 49a9 813d
00000200: 1b76 ccbd 40ff 053e 2801 2e3e 4be7 a8bd
00000210: 4c2c dfbd 5aa8 883e 1608 193e 440a aabd
00000220: 5990 a33d 4bf7 1e3e 4be5 883d fa54 ba3d
00000230: 6370 8fbe bae5 c83d 2813 f93d b418 21be
00000240: ad8b 593d c75b 083e 2c44 15bd 2fc4 963d
00000250: 5432 103e 7aa7 4dbe 7251 34be b4df f73d
00000260: c494 9cbd b452 4dbd 49cf 9abd d2c6 0abe
00000270: db44 823e a095 72bd d6b8 9e3e 991e 41bd
00000280: 08d2 c03c 4810 cabd 7871 02be eb88 d3bd
00000290: 6c13 e93d 1256 c13d de66 d1bd 5928 28be
000002a0: fb43 6bbe 2f6b d03c 1be1 07be 6e7c 07bc
000002b0: 4471 163e b1d6 043e d8c3 a53d d9d8 21be
000002c0: 038a 073e 8bdf e93d 4b16 d43d cd80 80bd
000002d0: b22e 05be af46 203e 08a3 623d 68d6 2f3e
000002e0: d77f 5abd 342f b6bd d3c4 d7bd c395 c33b
000002f0: cb85 b0bd 74b3 2e3d d86f 0b3e 1273 1a3d
00000300: adca 673d 1817 b23d f4cf bb3d 8674 f13d
00000310: 3f60 313e 4101 ccbd 68a5 e83d 8d03 8abd
00000320: fc90 bb3e 6459 fd3d 0c30 833c d437 cdbd
00000330: 7c48 0f3e 5dcd 52be d8b6 8a3b 6f6e c83d
00000340: 5126 d73d 921d 093e a51b 2a3e 15f8 543d
00000350: dacf 70bd 2afb bc3d 305a 823d 0f37 333e
00000360: 9271 f3bd 92bc d23d e712 9c3d bd26 d2bd
00000370: e82a d6bd ff94 01bd 17ef 4fbe cb9d 24bd
00000380: f413 663d f8ee 9d3d 4ffa 81bd 0094 553d
00000390: d2d9 283d acd9 fabe 77e3 10be f202 a9bc
000003a0: 93fe 583e 9bb5 d5bd 6379 333e 7776 4e3d
000003b0: 85a1 22be 3608 ec3d fd67 023e 9e32 02be
000003c0: 025a 92bd 46b6 5fbe 684f ed3d dde6 c43d
000003d0: c99a 8f3d 99c1 95bd 1a2a 9ebd ebd1 593e
000003e0: e2f4 bc3d 0f96 b7bd ba99 b73d f482 6b3d
000003f0: 9a41 4c3e b1a6 1abd 715f ba3d 34bc f33d

fc2.bias f4 [10]
-0.14390568 -0.0627449 0.08680386 -0.14514779 -0.13085619 0.19476385 -0.104284324 0.026468072
0.13713154 0.101308
00000000: 035c 13be 6680 80bd 39c6 b13d 9fa1 14be
00000010: 2aff 05be 2d70 473e 0593 d5bd 92d3 d83c
00000020: 366c 0c3e 927a cf3d
