mnist_model.onnx (onnx, 901712 bytes, 8 tensors)

fc1.weight f4 [128, 1600]
000000 36 21 16 bd 31 b2 e6 bc 52 4c 7c 3b 2f 3c 4d bd
       -0.036652766 -0.02816114 0.003849764 -0.050106224
000010 5b 31 a7 bc 77 39 50 bb eb 28 cf bd c2 2d c4 bd
       -0.020409277 -0.0031772533 -0.10115226 -0.0957904
000020 7a 9d 5c bd fc 2b af bd 05 5b 4b 3d 59 4f e8 bd
       -0.05386112 -0.08553311 0.04964735 -0.11343259
000030 99 4d 05 bc 03 73 96 bd b2 be 77 3d f3 61 c1 3d
       -0.0081361765 -0.073461555 0.060484596 0.094425105
000040 69 e2 ec 3d 8a 2d cb 3d 15 24 ab 3c ed 3f f2 3d
       0.11566622 0.09920795 0.020891229 0.11828599
000050 60 45 be 3d 7e 8d bc 3d 4f bd 88 bc 9a 0f 6b 3d
       0.09290576 0.09206675 -0.016691832 0.057387926
000060 0a 96 07 3e 25 1c 1c 3d c7 c4 cf bc 79 4a 95 bc
       0.13240829 0.03811278 -0.025362385 -0.018223988
000070 7f 22 63 bd df 7c 8a bd 61 98 d3 3c b1 ca 75 bd
       -0.05545282 -0.067620985 0.025829496 -0.060007755
000080 e7 e8 d4 3c aa 03 b4 bc 27 04 07 3c 1a 82 77 bd
       0.025989963 -0.021974403 0.008240736 -0.06042681
000090 1d c3 b4 bc 96 11 67 bd f4 e8 14 3d 39 e3 c4 3d
       -0.022065694 -0.056413256 0.036354974 0.09613652
0000a0 91 69 fe bb 90 2b b8 3d a2 11 a9 3c 4a c6 10 3e
       -0.0077640493 0.08992684 0.02063829 0.14138141
0000b0 47 94 52 3d 7b 20 ab 3c 64 86 5d bd 5e 45 ef bc
       0.05141094 0.020889511 -0.054083243 -0.029207882
0000c0 13 14 96 3d 69 39 45 bc 56 e1 66 bd 51 3c 7e bd
       0.073280476 -0.012037613 -0.05636724 -0.06206924
0000d0 6a eb ae bd fb 5c 23 bd 4e ca 25 bd 65 f7 5d bd
       -0.085409954 -0.039883595 -0.040476136 -0.054191012
0000e0 90 63 8f bd b8 a2 7c bd 24 f7 7c bd 20 5d 9d bd
       -0.07001412 -0.06167862 -0.06175913 -0.07683778
0000f0 f1 55 86 38 dc fb bd bd 6b 67 1c bd e0 cb 21 bb
       6.405626e-05 -0.09276554 -0.038184565 -0.002468817
000100 2b 9e cc bd 76 37 35 3d 8b 24 68 3d e7 3b 65 bd
       -0.09991106 0.044242345 0.056675475 -0.05596533
000110 cf 3c a0 3d 77 f5 09 bc d6 87 e7 39 c8 f7 02 bc
       0.07824098 -0.00842034 0.0004416096 -0.007993646
000120 02 38 53 bd 0b a1 03 bd d6 cb fe 3c 73 ac 8a bd
       -0.051567085 -0.032136004 0.031103056 -0.06771173
000130 60 a9 90 3b 00 43 e3 3d 31 4c 92 3d a9 c1 c0 3c
       0.0044147223 0.110967636 0.071434386 0.023529844
000140 3c c2 76 bd 6e 7d ff bd be c2 c8 bc 48 b7 d5 3c
       -0.06024383 -0.12475096 -0.024506923 0.026088372
000150 d9 80 dc 3b 8e 37 0e be ed 2f cd bd d3 e0 18 be
       0.006729227 -0.1388838 -0.10018907 -0.14929514
000160 36 2e 41 bd 9b ce e1 bc 61 51 5e bd 58 18 90 bd
       -0.04716321 -0.027564337 -0.054276828 -0.07035893
000170 a1 9f 22 bd 77 58 f5 bc fb 91 3f bc 3d d0 03 3c
       -0.039703015 -0.02994941 -0.011692519 0.008045253
000180 99 4e f8 bc 22 19 57 3c 42 cd 67 3b c7 81 94 3d
       -0.030310916 0.013128551 0.0035370146 0.072513156
000190 66 2a 95 bb 1e a8 1e 3d ce a6 d7 bb 32 80 13 bb
       -0.0045521734 0.038734548 -0.006581164 -0.002250683
0001a0 89 9e 07 3d 02 c2 95 bd d1 eb a2 bd 94 b9 25 3e
       0.033110175 -0.07312395 -0.07955135 0.16184074
0001b0 0e 4e 32 3b 7f 19 bd 3c 8d 32 2e bd 65 95 7e bd
       0.0027207169 0.023083447 -0.042528678 -0.062154192
0001c0 9b 5b a2 3d 85 54 1a 3e 18 71 07 3e 24 0c e9 3c
       0.079276286 0.15071304 0.13226736 0.028448172
0001d0 78 b3 3e 3d 9b 5c 84 3d 94 0b 58 3d d5 b4 91 3b
       0.046557873 0.064629756 0.052745417 0.0044466057
0001e0 f3 96 51 bd e3 88 df bb 08 c1 bd 3c 7e 45 4c bd
       -0.051169347 -0.006821738 0.023163334 -0.04987096
0001f0 08 d5 2d bd 1a 6d 98 3c b1 ae 1c bd e6 bd bc bd
       -0.04243949 0.018606711 -0.038252536 -0.09215908
000200 2a 98 4e bd e8 fd e4 3c 12 9c 07 3d 89 e5 cd 3c
       -0.050438084 0.027953103 0.033107825 0.025133865
000210 3d 4b 8b 3d c5 54 ae bd af 41 ed 3c 96 09 8b ba
       0.0680146 -0.08512262 0.028961984 -0.0010607715
000220 1d 39 2a 3d b7 c6 56 3d 7c 5a 03 bd 51 22 94 bc
       0.041558374 0.052435603 -0.032068714 -0.01808277
000230 16 d0 c1 3d 5a df c8 3d 5c b7 17 3e 1f f5 ac 3d
       0.09463517 0.09808226 0.1481604 0.08445191
000240 f3 fe 0b 3d d4 69 2d bd 13 28 02 3d a8 ca a2 bb
       0.034178685 -0.042337254 0.0317765 -0.004968006
000250 59 34 08 bc 08 e4 94 3c a4 72 1e 3d ac 88 aa bb
       -0.008313262 0.01817514 0.03868355 -0.005204281
000260 40 23 5c bd 89 98 13 3d b4 b6 c7 3c c3 b6 a0 3c
       -0.053744555 0.03603414 0.024379112 0.019618398
000270 d4 93 05 bc e1 3e d2 3d 7c ac eb 3c 83 cd c5 bc
       -0.008152921 0.102658994 0.02876877 -0.024145847
000280 c4 cd 71 bc 62 e0 d7 bd 9d fb c5 3d c5 93 8d bc
       -0.014758531 -0.105408445 0.09667132 -0.017282376
000290 dc 64 1e bd 88 ff 8b 3d d9 b3 af bd 44 53 bc bd
       -0.038670406 0.06835848 -0.08579225 -0.09195569
0002a0 8b 26 c8 bd f6 f0 84 3d 92 d1 10 3c 26 bc 12 bc
       -0.097729765 0.06491272 0.008839028 -0.008955991
0002b0 c6 86 12 bd 32 b7 3e 3c 6b 8b b9 3d 3e ff f5 bb
       -0.03577306 0.011640357 0.09059795 -0.007507234
0002c0 c6 63 71 3b 45 6a 60 3d e1 ee 0e 3d a9 26 6d 3d
       0.0036833151 0.054788847 0.03489578 0.057898197
0002d0 e0 6b ca bd bd 0a 4f bd 4a d6 0a 3e ce 13 72 bd
       -0.09883857 -0.05054735 0.13558307 -0.05910092
0002e0 15 a3 76 bd e1 3d 93 3d 52 b9 44 3d c9 e5 54 3b
       -0.06021412 0.07189537 0.048028298 0.0032485595
0002f0 21 c4 d1 3d bc 23 b2 3c 0b 0f 8a 3d 79 96 9c 3d
       0.10242487 0.021745555 0.067411505 0.07645888
000300 de 6d 44 3e 1f 11 15 3e de 5b 29 3d 11 05 a2 3d
       0.19182536 0.14557312 0.041347377 0.079111226
000310 d9 7d db 3d 53 60 4d 3d 74 c7 44 3d 3f 90 5c 3b
       0.10717363 0.05014069 0.048041776 0.0033655313
000320 de 06 17 3d d2 59 82 3c 3b a3 a0 3d fd 6e a4 3d
       0.036871783 0.01591197 0.07843634 0.08028982
000330 15 6f ed bc 73 47 5c bd bf e4 ca bd c2 db 90 bd
       -0.028983632 -0.053779077 -0.09906911 -0.070731655
000340 a1 55 7e bd 76 7e 6b bd ac 4a d1 3c b6 72 35 3d
       -0.06209338 -0.05749365 0.025548302 0.04429885
000350 39 1c b4 bb da 40 bd bd 93 a8 ad 3d ba dc b7 3d
       -0.0054965285 -0.09240885 0.084794186 0.08977647
000360 e3 20 90 3d 1a 63 b8 3d 3e 20 be 3c 17 fa ba 3d
       0.07037523 0.09003277 0.023208734 0.09129732
000370 4d 9c 87 3d c1 98 a5 3d 4c d3 f3 3c 25 aa 25 3b
       0.06621609 0.08085776 0.02976384 0.0025278416
000380 f6 ef a0 3d 57 ad 7e bb 15 e4 51 bb 01 a8 3e 3d
       0.07858269 -0.0038860643 -0.0032026817 0.04654694
000390 88 32 0e bd a6 41 9b 3c a1 54 ae bb 9d 21 29 3d
       -0.03471616 0.018952202 -0.005320147 0.04129182
0003a0 ec 68 68 3c d3 c2 ae bc a7 77 23 bd 31 58 71 3d
       0.014185172 -0.021333134 -0.03990903 0.058921997
0003b0 e7 6a ac 3d 4c 52 a1 3d 40 a7 83 bd 22 06 eb bc
       0.084188275 0.07877025 -0.06428385 -0.028689448
0003c0 ae f7 ca 3d bb aa 02 3e 12 19 aa 3d d2 c6 c0 3d
       0.099105224 0.12760441 0.08305563 0.09412922
0003d0 ad 2f a7 3b 4c 49 07 3d 85 56 13 3d 64 0a 7c bd
       0.005102119 0.033028886 0.035971183 -0.061533347
0003e0 6b 0f af bd ff 48 9c 3b c9 86 c9 3a 0d 51 34 bd
       -0.085478626 0.004769444 0.0015375252 -0.04402261
0003f0 95 4c 73 bd c5 26 8c bd 58 74 e0 bc c2 ab fb 3d
       -0.059399206 -0.06843332 -0.027399227 0.122886196

fc1.bias f4 [128]
000000 a7 13 49 3c 0e 37 7b bd b3 d1 8f bd cb ac 16 bd
       0.012272752 -0.0613318 -0.07022419 -0.036785882
000010 04 2c 43 bd a3 2b e5 3c b2 df 07 3d b2 9e ad ba
       -0.0476494 0.02797491 0.033172317 -0.0013246147
000020 a7 42 50 bd 6a 8f 43 bd ee cb 66 bd 66 09 2e 3d
       -0.050844815 -0.047744192 -0.056346826 0.04248943
000030 e7 70 52 3b 10 9e d7 bd ac eb 9d bd 47 66 ee bc
       0.0032110752 -0.10528195 -0.077109665 -0.029101504
000040 cb 7c b0 3c b3 d5 d3 ba 5d 86 b6 bb 9f 5e fd bc
       0.02154388 -0.001616171 -0.0055702166 -0.030928908
000050 a0 78 b8 3c b2 73 f7 bc ba 38 cc 3d 27 44 42 3c
       0.022518456 -0.030206535 0.09971757 0.011857069
000060 42 23 88 3d 3a b9 1d 3c 9b f8 60 bc d8 01 59 3d
       0.0664735 0.009626681 -0.013731147 0.052980274
000070 80 e3 ee 3c fa 38 d7 3d de e7 4e 3c ad 86 ac 3b
       0.029161215 0.10508914 0.012628524 0.005265078
000080 08 3d 4d bd 61 fc 65 bd 7f 03 4e 3d 9b 2c 86 bc
       -0.050107032 -0.05614889 0.050296303 -0.016378691
000090 fb 83 51 3d 9e d0 30 bd 52 03 7f bb 60 e2 00 bc
       0.051151257 -0.043167703 -0.0038911891 -0.007866472
0000a0 f4 a3 9a 3c a7 25 0f 3c ac 8e 95 bb 24 89 2f bd
       0.018877007 0.008737004 -0.004564127 -0.042855397
0000b0 b1 da 14 3d 12 17 3a 3a ff 45 79 3c a5 ad 80 ba
       0.036341373 0.00070987747 0.015214442 -0.0009817375
0000c0 bc 61 4f bd 0e 02 5a bc a3 0e 51 bd 9d f5 1c bd
       -0.050630316 -0.013306154 -0.05103935 -0.038320173
0000d0 74 47 15 bd 27 f2 8d 3d 33 c9 1f 3d 37 cb 8d bc
       -0.036445096 0.069309525 0.039010238 -0.017308814
0000e0 49 4d 3b bd a5 ff 45 3c 39 55 73 bd 1b 8f ae 3a
       -0.045728 0.012084876 -0.059407447 0.0013317795
0000f0 8a ce 5b 3c d7 d0 22 3d 61 9b 9b 3d 2a 2d 53 3d
       0.013415942 0.039749946 0.075979955 0.051556744
000100 5b bf 1f bd 65 d9 8a 3d c6 17 3b 3c 9d 23 b3 bd
       -0.03900085 0.06779746 0.011419242 -0.08747027
000110 02 88 97 bc 9b 77 48 3d 1d 80 4a bd c4 d7 ef 3c
       -0.01849747 0.04894219 -0.049438585 0.02927769
000120 41 b1 bf 3a ad ab 39 bc 8c eb 1d 3c a0 d0 db 3c
       0.0014624969 -0.011332435 0.009638678 0.026832879
000130 b9 59 d4 3b 58 01 46 bc 0c 14 3b 3c bb 41 67 bd
       0.0064804223 -0.012085281 0.011418354 -0.05645917
000140 7d bd b6 bc da b8 64 3c ce 6d 7a bc 2a e3 b4 bc
       -0.022307152 0.013960088 -0.015284969 -0.022080977
000150 83 4c d3 bc 47 17 69 bd 40 d4 12 3c af 65 8f bc
       -0.02579332 -0.056906965 0.008961737 -0.017504541
000160 1a d0 80 3d 7b b4 70 3d 9c f1 00 bb cb 27 3b bd
       0.06289692 0.05876587 -0.001967526 -0.045692246
000170 2c 4c 96 3d 91 2f 03 3c e5 f4 74 bd ee fa 34 bb
       0.073387474 0.008006946 -0.059803862 -0.0027615386
000180 ec 4e 68 bc 31 85 f7 bb e1 28 93 3b 19 2c c0 3c
       -0.014178973 -0.0075537194 0.004490957 0.023458527
000190 e4 cf 5b 3d 75 ba 75 3d 7b fa bb 3c 39 5e 0f bb
       0.053665057 0.059992272 0.022946587 -0.002187623
0001a0 de d8 8b 3d 49 2a 80 bd 81 b9 06 bd d1 86 72 3c
       0.068284735 -0.06258065 -0.032891754 0.014802651
0001b0 e8 ac 87 3d 1e 69 1b 3d 86 8c 7d bc a8 83 76 bd
       0.06624776 0.037942044 -0.015475398 -0.06018415
0001c0 79 19 0b bd 5e f6 75 bd a3 26 1f bc a5 96 00 3d
       -0.03395984 -0.060049407 -0.009713802 0.031393666
0001d0 4f 06 00 3d 17 73 7b bd 81 70 8b 3c 99 b1 22 bd
       0.031256016 -0.061389055 0.01702142 -0.03972015
0001e0 ec d6 c8 3c a1 fc bc 3d ee 33 ab bc e5 7f 26 3c
       0.024516545 0.09227873 -0.020898785 0.010162328
0001f0 39 a5 b9 bb 55 3c 00 bd eb 8c 8d bd e3 8f c2 3c
       -0.005665448 -0.031307537 -0.069116436 0.023750251

fc2.weight f4 [10, 128]
000000 aa 7d 4f bd 31 66 d0 3d ee f5 13 3d e0 a4 20 3a
       -0.050656952 0.101757415 0.03612321 0.0006128084
000010 68 3d 30 3d 04 ee ae bd 08 2c bf 3d 8d 3b b1 3d
       0.04302731 -0.08541492 0.0933457 0.086539365
000020 77 2c e9 3d 0d 01 ae 3d e4 ea df bd 69 a4 e8 3d
       0.11385434 0.08496294 -0.10933474 0.11359484
000030 64 98 11 be 17 10 07 be d1 40 d7 bd c6 35 02 3d
       -0.14218289 -0.13189732 -0.105104096 0.031789564
000040 aa 36 87 3c c4 11 b8 bd 03 4a 69 3d dd 1a 1a be
       0.016505558 -0.089877635 0.05695535 -0.1504931
000050 22 ad 27 3e 60 8f 04 be 8c 59 1d 3e c1 0d 3a bd
       0.16374639 -0.12945318 0.1536619 -0.045423273
000060 53 60 24 3d d3 4a b1 bd 1f e0 b7 bd 38 25 88 3d
       0.040130924 -0.0865685 -0.089782946 0.06647724
000070 6a 0e 43 3c dd 1c c9 3d 40 e6 b6 3d 5b 18 5a bd
       0.011905292 0.09819958 0.089306355 -0.053245883
000080 4a 52 ba bd d6 b8 41 3c 3a ec ea 3c f9 c7 b8 3d
       -0.09097727 0.0118238535 0.028677095 0.09022517
000090 9e 87 c9 bb 4c 7f d8 bd 42 15 09 be e9 c3 a5 3b
       -0.0061502 -0.10571155 -0.13387015 0.0050587547
0000a0 df 29 9c bd ba 46 a0 bc cd b8 c4 bd 27 a5 08 3d
       -0.07625174 -0.019564975 -0.096055605 0.033360627
0000b0 84 2c 59 3e 34 93 d0 3d 8a 15 39 3e da 56 6a 3d
       0.21208388 0.10184327 0.18074623 0.057211734
0000c0 f4 46 72 3d 4c 45 bf bd bb a9 44 bd 05 38 b3 bd
       0.059149697 -0.09339389 -0.04801343 -0.08750919
0000d0 9c c3 77 3d e0 fd 2f bc f1 da 18 bd 51 b2 5d bd
       0.060489282 -0.010741681 -0.037318174 -0.054125134
0000e0 72 20 1f 3c bd 14 6a 3d 56 b1 fc bd be 80 88 bd
       0.009712325 0.057148684 -0.12338512 -0.066651806
0000f0 f2 8f b0 3d 53 8c 7d bc d9 00 bf 3d b1 9c bf bd
       0.086212054 -0.01547535 0.093263336 -0.093560584
000100 0b ae 86 bd b1 cc 1e 3d 0d e0 2c be 67 19 d9 bd
       -0.06576165 0.038769428 -0.16882344 -0.10600548
000110 bd 2a d1 bd b7 0e 7d 3d b5 e6 69 bd 0e 43 8a 3d
       -0.1021323 0.06178161 -0.057104785 0.06751071
000120 ac f3 67 bd 42 60 8b bc d5 61 cf bd 22 30 88 3d
       -0.056628868 -0.017013673 -0.10126082 0.066498056
000130 f1 63 c1 bd 98 f9 03 be 0d 28 bf 3d 17 78 43 bd
       -0.094428904 -0.12888181 0.09333811 -0.04772195
000140 10 b3 3f 3c a0 29 c6 bd a4 20 4a 3d b9 76 a9 3d
       0.011700407 -0.09675908 0.049347535 0.08274598
000150 b5 83 87 bc 95 44 e2 bd 4b b4 6d bd ce c6 d1 bd
       -0.016542295 -0.11048237 -0.05803327 -0.10242997
000160 2d 69 44 bd 92 1f db bc 4b fe 88 bd 32 0e 9d bd
       -0.047951866 -0.026748452 -0.066891275 -0.07668723
000170 06 74 5b 3d a2 88 bb bd fb 7d 07 be 96 69 72 3d
       0.053577445 -0.0915692 -0.13231651 0.059182726
000180 81 9d aa bb 12 f1 47 bd 45 2e 95 bd b8 fe df 3d
       -0.005206764 -0.048813887 -0.07284216 0.109372556
000190 d3 fa c7 3d 82 2c f8 bc 02 ea 07 3c ea cf 3f bd
       0.09764638 -0.03029466 0.008295538 -0.04682914
0001a0 5c 54 c1 3d c4 88 02 3d 7c 42 20 bc 83 60 a7 3d
       0.094399184 0.03186871 -0.009781476 0.08172705
0001b0 15 1d ea 3d d5 8c 30 3d e0 bd 3f bb 70 b0 f3 bd
       0.11431328 0.043103058 -0.0029257461 -0.11898887
0001c0 b1 2c 32 39 15 4d 10 be 04 1d 98 bd 79 de 1f 3d
       0.00016992052 -0.14091904 -0.07427409 0.039030526
0001d0 9a c7 cb 3d 3d c0 be bd cc 54 90 3d 52 b9 13 be
       0.0995018 -0.0931401 0.07047424 -0.14426163
0001e0 fb cb a8 3d 3e 2c 80 3d fe ac 0e be 49 b5 27 3d
       0.08242031 0.062584385 -0.13933179 0.04094437
0001f0 23 94 61 bd 0e dc 0a 3c 5b 6b d2 bc 20 27 b0 3d
       -0.055072915 0.008475317 -0.025685957 0.086012125
000200 1b 6b 3b 3e b0 d7 95 bd 38 88 76 bd d3 23 00 be
       0.18302576 -0.0731653 -0.060188502 -0.12513666
000210 7c f4 30 be a9 67 fc 3d 7a bb 0e bd 3a 6b 9a 3d
       -0.17280763 0.12324459 -0.03484676 0.07539983
000220 ae 67 01 bd 4e f1 f3 bd 4d 44 fc bd 22 7d a8 3c
       -0.031593017 -0.119112596 -0.12317715 0.02056748
000230 d2 1d 2d 3d 24 7f dd bd 9f 4e e1 bd 56 f0 87 bd
       0.042264767 -0.10815266 -0.11001324 -0.06637637
000240 b2 2c a4 3d 67 a9 5e bc f3 58 e1 bd d2 53 fc bc
       0.080163375 -0.013590193 -0.11003294 -0.030801687
000250 ec aa 96 bd d6 5b 01 3d 73 7c 8a 3d 68 f6 ad 3d
       -0.073568195 0.031581722 0.06762018 0.08494264
000260 b1 fd 05 3e 1a 59 ba 3c 1e a5 a2 bd 96 79 10 bd
       0.13085057 0.022747565 -0.0794165 -0.035272203
000270 73 c3 a0 3c 2c 96 21 3e 2f 5a b4 3c 25 19 93 3d
       0.019624447 0.15779942 0.02201566 0.0718253
000280 c5 bc cb 3d fe 76 20 be a8 a5 f9 3d e3 5a 87 bd
       0.09948114 -0.15670392 0.121897995 -0.06609132
000290 57 12 36 3e 4b 20 96 3c 66 cb 8a 3d 21 e3 bb bd
       0.17780434 0.018325945 0.067770764 -0.09174181
0002a0 78 3f 44 3d ec 6f 79 3d 4d f7 d3 bd 29 d6 03 be
       0.04791209 0.060897753 -0.10349903 -0.12874664
0002b0 97 2b 91 bd 25 2f f0 3b 04 54 5a 3b b0 3f ea bd
       -0.07088392 0.007329839 0.0033314237 -0.11437929
0002c0 7e 05 10 be 6a 15 40 3d 5e fd cf bd 04 d4 57 3c
       -0.14064595 0.046895422 -0.10155748 0.013173107
0002d0 4d 22 db 3b e0 84 25 3d 7b 3f d5 3d 3b 39 b7 bd
       0.0066874386 0.040409923 0.104124986 -0.08946463
0002e0 17 2c e3 bb 94 97 c3 3c c2 71 91 bd 86 1b 3b bc
       -0.006932746 0.023875989 -0.07101776 -0.011420136
0002f0 41 22 fc bc 42 47 12 3e 20 3b d2 bc 11 a5 bf 3d
       -0.030778052 0.14284995 -0.025662959 0.09357656
000300 8b 51 5b bd 6c 36 4c 3c 8b 7f cc 3c 39 71 bd bd
       -0.053544562 0.012464147 0.024963161 -0.09250111
000310 7f 47 b8 3d bd 6e 1c 3c 32 43 4b bb c7 53 03 be
       0.08998012 0.009547886 -0.0031015393 -0.12824927
000320 b5 e9 9b bd 56 ed e3 3d 27 46 ca 3d 7e 56 d0 bd
       -0.076129355 0.111292526 0.09876662 -0.10172747
000330 c2 5b b5 3d 5b 16 c3 3c 8c 21 37 bd d9 2d c6 bd
       0.08855392 0.02381437 -0.044709727 -0.096767135
000340 45 04 88 3d f6 a9 94 3c 5c 67 9c bd 12 a7 a2 bb
       0.06641439 0.01814745 -0.07636902 -0.004963764
000350 53 db 91 3d 55 fa 90 3d 2b b6 e0 3d 4d e5 96 bd
       0.07121911 0.07078997 0.10972246 -0.073679544
000360 c2 ca c5 3d f0 5b 7a 3d 93 d2 a4 bd 28 ae 22 3d
       0.096578136 0.061122835 -0.08047976 0.03971687
000370 e8 bd f4 3d 0a 17 90 3d 49 71 79 3c cc d7 54 3d
       0.11950284 0.07035644 0.015224763 0.051963612
000380 db fd 26 3d 45 28 6f bd c4 74 4d bd a2 60 8e bd
       0.04076944 -0.058388013 -0.050160185 -0.06952025
000390 a0 ae 65 bd 12 9f 0b 3e 21 00 19 3c 4a 49 b5 3d
       -0.05607474 0.136349 0.00933841 0.088518694
0003a0 0c 37 53 3d bf 39 7b bd 47 d9 80 bc e3 6f 26 bd
       0.05156617 -0.061334368 -0.015728606 -0.040634047
0003b0 d6 ad 17 bd f8 e3 eb bd 6a c2 31 3d 78 73 42 be
       -0.037031017 -0.11518091 0.0433983 -0.1898936
0003c0 1a 74 98 bd dd 76 ef bd 95 ea c8 3d d9 d1 0f 3d
       -0.074440196 -0.11692593 0.09810368 0.035112236
0003d0 13 27 b9 3d 83 67 26 bd b3 f4 9c bd 63 e4 05 be
       0.09040656 -0.04062606 -0.0766386 -0.13075404
0003e0 ed 96 4c bd 38 b2 03 bc dc 01 bc 3d 38 58 fd 3d
       -0.04994862 -0.008038096 0.09180042 0.12370342
0003f0 cb cc a6 3d 1f b6 7f bd 99 d8 28 3d f8 11 62 bd
       0.0814453 -0.062429544 0.04122219 -0.055192918

fc2.bias f4 [10]
000000 85 07 26 be 16 e0 bd bd 87 b8 13 3e a5 27 dc bd
       -0.16213806 -0.092712566 0.1442586 -0.10749749
000010 f7 95 db bd 35 03 8a 3d 82 80 01 3b 85 71 24 bd
       -0.10721963 0.06738893 0.0019760435 -0.040147323
000020 04 47 c5 3d 98 32 df 3d
       0.09632686 0.10898322

onnx::Conv_32 f4 [32, 1, 3, 3]
000000 3d 0f 52 bf 62 9b 48 be d0 39 e6 be 82 28 01 3f
       -0.820545 -0.19590524 -0.44965982 0.50452435
000010 e7 1e e8 be cf 2b 31 bf 42 ae cf 3e 31 a2 3c 3f
       -0.45336077 -0.6920747 0.40562636 0.73684984
000020 e8 3f 2d bf 8e 93 a1 3e a9 8f ad bf 02 7c 00 3f
       -0.6767564 0.31557888 -1.3559467 0.5018922
000030 35 f8 53 3f a2 cc fb bf c7 c2 5c 3f f5 b0 4a 3e
       0.8280061 -1.9671824 0.86234707 0.19794066
000040 67 56 7d bf cd 5b bb 3e b8 e9 03 bf ed bb 27 bf
       -0.98959965 0.36593476 -0.515285 -0.65521127
000050 0f 69 a5 3e 62 fc 7a bf d5 b8 22 be 8f 24 83 3f
       0.32306716 -0.98041356 -0.1589082 1.0245532
000060 e9 24 ff bd 6a 8a 31 3f 3a c7 2d 3e 9f b9 c5 3e
       -0.12458212 0.6935183 0.1697053 0.3861818
000070 3e 33 24 bf ab 2a 22 bf cf da fe 3e 1b 0c 1d 3f
       -0.6414069 -0.63346356 0.49776313 0.61346596
000080 65 19 8b bf cf 08 2e 3f fd 41 0b bf 3c 38 3f bf
       -1.0867125 0.6798219 -0.54397565 -0.7469518
000090 0e dd d8 3e 11 19 ee be 5e 7e 1f 3f 2f 43 d9 3e
       0.4235615 -0.465035 0.62302196 0.4243407
0000a0 6b 47 fa be 26 fd 9f bd d0 49 f5 3e 50 73 b6 be
       -0.48882613 -0.07811956 0.47907877 -0.3563485
0000b0 86 17 12 3f d6 2d 0d 3f 6b e1 a8 3d 87 d2 28 bf
       0.57067144 0.55148065 0.0824612 -0.6594624
0000c0 a8 f3 9a be 14 11 97 3f 51 09 86 3d 2a a0 9c bf
       -0.3026402 1.1802087 0.06544746 -1.2236378
0000d0 60 e3 59 be a6 4c 62 3f 14 56 39 3e 52 89 6c bb
       -0.21278143 0.88398206 0.18099242 -0.0036092591
0000e0 c0 d6 2c bf 42 05 32 3f ac 42 bb be 59 b4 0d bf
       -0.6751518 0.6953927 -0.36574304 -0.55353314
0000f0 2d 7d 2c bf 52 66 52 bf d2 00 13 bd 71 c0 5d 3e
       -0.67378503 -0.8218738 -0.035889454 0.21655442
000100 09 97 df 3e 49 8e 02 3e 16 ab af be 71 5d 03 bf
       0.43669918 0.1274959 -0.34310216 -0.51314455
000110 a7 61 bb 3e 8b 98 fd bd 17 80 08 3d be 72 09 3f
       0.3659794 -0.12382611 0.03332528 0.5369071
000120 ab 1e 69 bf f8 26 35 3f 91 f0 76 3e 72 74 88 bf
       -0.9106242 0.70762587 0.24115206 -1.0660536
000130 00 5c 89 3e 94 2b 26 3f a2 81 49 bf 1c 39 1b bf
       0.26828003 0.64910245 -0.7871343 -0.60634017
000140 bd ad 8a be 62 23 eb 3e bb fb 85 3e a3 5c b6 bd
       -0.27085677 0.45925432 0.26168618 -0.08904388
000150 1c 1b fb bd 7d 74 c7 3e 5f 86 69 bf 35 de a2 be
       -0.1226103 0.3895606 -0.9122066 -0.31810156
000160 45 ec 52 bf 98 01 3b bf 23 f5 c4 bd f0 a6 86 3f
       -0.8239177 -0.73049307 -0.096170686 1.0519695
000170 4e 14 a3 bf 83 ca 13 bd 97 e4 97 3e 08 7d cc bd
       -1.2740571 -0.036081802 0.29666588 -0.09984785
000180 60 64 d7 be 73 86 99 3f b4 fd 9c bf f5 c9 aa bd
       -0.42068768 1.1994156 -1.2264924 -0.083393015
000190 6a 7e 81 be 7c b6 3c bf 47 d5 3b 3e af b7 54 be
       -0.2529176 -0.7371595 0.18343078 -0.20773195
0001a0 da 1e dc bd 59 f8 0b 3f d2 35 17 3e 59 1e 0a 3f
       -0.10748072 0.54675823 0.14766625 0.53952557
0001b0 91 b0 8d bc 3a e3 20 3f bf 50 d9 3e a0 d3 25 bf
       -0.017296107 0.6284672 0.42444417 -0.6477604
0001c0 18 4a 9d be 55 d3 13 bf 28 d3 f7 be d1 51 a6 bc
       -0.30720592 -0.5774434 -0.48403287 -0.020302685
0001d0 54 52 0f bf 9c 28 6d 3f 35 12 00 3e 46 62 15 3d
       -0.55985 0.9264009 0.12506945 0.036470674
0001e0 e5 c0 8c bf 6d c1 df bf d0 0b c2 bd 1b 33 7d 3f
       -1.0996367 -1.7480904 -0.09474909 0.98906106
0001f0 a6 ef 07 3f 95 77 ac 3e 8f 16 da bd 6a f1 4d bf
       0.5310005 0.33684984 -0.10648834 -0.80446494
000200 25 ee 3c bf d2 e8 a5 bf e7 17 11 bd da bb 04 bd
       -0.7380088 -1.2961676 -0.035423186 -0.03240571
000210 31 7a c0 3e 26 bc e9 3e 54 26 48 3f f7 40 4d 3e
       0.37593225 0.45651358 0.78183484 0.20044313
000220 50 e7 da bd 42 4c 73 3e 7e 1c 30 3e 8a 1d 85 be
       -0.106886506 0.23759559 0.17198369 -0.259991
000230 51 b6 42 3e df 4a 81 3e c9 e4 23 3e 2a 0a 90 3d
       0.1901486 0.25252435 0.16005243 0.07033189
000240 8d e0 cf 3e 33 34 ca 3e 48 70 97 bf 9f f1 f6 be
       0.40601006 0.3949295 -1.183114 -0.48231217
000250 c7 b2 55 bf 4b 15 b2 be 9e 9c 4a bf 4a 47 da be
       -0.8347592 -0.3478187 -0.7914523 -0.42632514
000260 c7 02 9c 3f 86 b5 8e 3e 4c 34 dc 3d 5c e8 a4 bf
       1.2188348 0.27872866 0.10752162 -1.288341
000270 9d 92 b1 bd 88 fb 4e 3f e0 a5 0b bf 01 0d 03 3f
       -0.086705424 0.80852556 -0.5454998 0.5119172
000280 27 dc c5 be 4b 97 47 3f 84 9b 07 3f 9e 95 0a 3f
       -0.38644525 0.7796523 0.52971673 0.5413455
000290 67 28 86 3b 87 81 2e 3f c2 10 3e 3e 36 b0 be be
       0.004094172 0.68166393 0.1856108 -0.37243813
0002a0 f3 55 61 bf 96 63 e1 be 0b ac 98 bf 71 7e 1e 3e
       -0.88021773 -0.4402129 -1.1927503 0.15477921
0002b0 c5 0d 01 be 4e 06 8c 3f 9f 40 30 bf 12 15 8b bf
       -0.12602909 1.0939424 -0.68848604 -1.0865805
0002c0 56 61 e3 3e e5 66 3a 3f 08 21 83 bf ff 33 85 bd
       0.444102 0.72813255 -1.0244455 -0.06504058
0002d0 d8 aa 97 bf 30 cc f0 be ea bc c7 be e7 f1 34 3f
       -1.1849012 -0.47030783 -0.39011317 0.70681614
0002e0 15 59 a2 3f d5 e3 19 3f be 0f 14 bf 60 4d a5 be
       1.2683436 0.6011327 -0.5783652 -0.32285595
0002f0 25 b7 75 bf 72 c0 16 3e 35 55 5d 3f e9 6e e3 bd
       -0.9598258 0.1472185 0.8645814 -0.11105139
000300 b7 2f 70 3f 07 7b 4b bf d6 37 56 bc ae f0 83 be
       0.9382281 -0.794846 -0.013074836 -0.25769562
000310 d0 ec 8a bf fc 57 c3 3d 2a 5e de 3e d0 ad 89 3e
       -1.085352 0.09538266 0.43431216 0.2689042
000320 dd 45 3e be e6 0b 8b be be 8f 3e 3f f1 51 40 3f
       -0.18581338 -0.27157515 0.74438083 0.7512503
000330 51 e8 73 bf 9c ca 4e bf e0 99 37 bf ab dd 75 bf
       -0.9527636 -0.8077791 -0.7171917 -0.96041363
000340 31 39 f0 3e 96 f5 31 3f f8 4a 87 be 55 e3 4f 3f
       0.46918634 0.6951536 -0.26424384 0.81206256
000350 04 80 1c bf 6b c9 fc 3e 85 d4 c4 bc db 16 64 be
       -0.61132836 0.4937242 -0.024027118 -0.22274344
000360 ae f9 d5 bc f4 cb 59 3f 14 a5 ec 3d 11 48 85 3d
       -0.026120033 0.8507683 0.11554924 0.06507886
000370 78 a5 1b 3e 53 ee 0f be 6e 4b 3e 3e 20 38 00 be
       0.1519984 -0.14055757 0.18583462 -0.1252141
000380 78 e6 87 bf 82 3c 34 bf 88 05 1e bf ce f5 91 bf
       -1.0617208 -0.7040483 -0.6172719 -1.1403139
000390 ed d6 e3 3e 18 a4 4e 3f 2e 15 67 be 95 5a 18 bf
       0.44499913 0.8071914 -0.22566673 -0.5951322
0003a0 2d 0d 7f 3e 65 89 42 3f ad 32 50 bf b6 ac 05 3d
       0.2490737 0.759909 -0.81327325 0.032635413
0003b0 83 3a 19 3d 4f a3 ef be aa c4 b6 bd ed dd fc 3d
       0.037409317 -0.46804282 -0.089242294 0.123470165
0003c0 74 63 72 bf e3 1a d0 3d 7e 83 5d 3f ca 19 6f be
       -0.94683003 0.10161378 0.86528766 -0.23349681
0003d0 27 34 23 3f 08 7b 1b 3f 96 fa 99 be 9c 3e 75 3d
       0.63751453 0.60734606 -0.30073994 0.059874162
0003e0 8a 93 1a 3e 48 67 49 bf 2b 24 4d bf bd e3 0c bf
       0.15095344 -0.7867322 -0.8013331 -0.55035
0003f0 e3 6a 2f 3d e2 3b a5 3d 80 6d 47 be d4 3b d0 3f
       0.042826544 0.08068062 -0.19475365 1.6268258

onnx::Conv_33 f4 [32]
000000 b2 1d b2 bf 6e c0 4a bf 45 74 ae be 92 f6 97 bf
       -1.3915312 -0.79199874 -0.34073082 -1.1872122
000010 00 3b e9 3e 19 95 bd be 71 33 d2 bf 70 8d 60 bd
       0.45552826 -0.37027815 -1.6421949 -0.054822385
000020 71 16 af bf a6 18 c1 bf df 7c 41 bf 8d 0f d1 be
       -1.3678724 -1.5085647 -0.75581163 -0.40832177
000030 4b fe a0 bf da 82 4c be 58 1a 9a bf 78 9d f6 3d
       -1.2577604 -0.19971791 -1.203929 0.120417535
000040 96 67 ba bf 6e f0 91 be cc 0f 33 bf 70 3f 8b be
       -1.4562862 -0.28503746 -0.6994598 -0.27196836
000050 20 fa 86 bf 20 6a 97 be 8d 77 12 bf 15 0a ba be
       -1.0545082 -0.29573154 -0.5721367 -0.36335817
000060 14 92 b2 be 6d 4a 41 bf 17 82 41 bf 81 93 6b bf
       -0.34877074 -0.7550419 -0.75589126 -0.9202195
000070 3e 4b 94 be bb 5f e3 bf ac 50 4c be b4 c6 12 be
       -0.28963655 -1.776359 -0.19952649 -0.14333612

onnx::Conv_35 f4 [64, 32, 3, 3]
000000 55 44 94 bd 8d b0 bf bc a0 40 fc 3c 5c d3 91 bc
       -0.07239596 -0.023399616 0.030792534 -0.01780098
000010 cd 04 55 bc ce f0 8d 3d d2 b6 dc 3c 45 2a 96 bb
       -0.013001633 0.069306955 0.026942644 -0.0045826756
000020 1d bb ee 3d 72 5f 17 bd 23 53 51 bd 2a ed d9 bc
       0.11656783 -0.036956258 -0.051104676 -0.026602346
000030 d7 bc dd bc 4f 0c 97 bd 7f b1 79 bd af b3 00 3d
       -0.027067585 -0.073753946 -0.06096029 0.03142136
000040 e4 b4 83 3d a5 b6 0a bd 93 81 13 bc 4c fa 0a bd
       0.064309865 -0.03386559 -0.009003061 -0.033930108
000050 fb 53 20 bd 4f 25 0d 3d f1 1d 95 bc 9e ff 90 bd
       -0.03914259 0.03445941 -0.018202754 -0.07080005
000060 e4 91 42 3d d3 a2 5a bb b0 5c 61 bd e3 75 75 bd
       0.047502413 -0.003336121 -0.055020034 -0.05992688
000070 9f 81 2a bd 15 59 1e bd c6 02 84 bd 54 ac da bd
       -0.041627523 -0.038659174 -0.064458415 -0.106774
000080 02 10 41 bd ea b7 45 3d 86 da cf bc be 3b 1e 3d
       -0.047134407 0.048271097 -0.025372755 0.038631193
000090 72 18 a1 bc fd d3 2c bc f3 1c 72 bc 55 7f 0a bd
       -0.019664977 -0.010548589 -0.01477741 -0.03381284
0000a0 6d cd 90 bc 0e 64 0b bd e6 61 fe 3c 32 5a b2 bc
       -0.01767608 -0.034030966 0.031052541 -0.021771524
0000b0 5c f7 9b 3c 4b d7 0a bd 37 2f 0f bd 34 47 76 bb
       0.019038849 -0.033896726 -0.034957137 -0.0037579061
0000c0 2b 6e a7 bd c9 08 27 bd 49 0a 57 3c d9 d9 4d bd
       -0.0817531 -0.040779863 0.013125011 -0.050256584
0000d0 2a 1a ea 3c 69 80 af 3d f6 01 c6 3d b9 fd 16 3d
       0.02857693 0.08569414 0.09668343 0.036863063
0000e0 83 86 bf 3c f9 98 e7 3c 4f 7d 38 39 d0 83 ae bb
       0.02337957 0.028271185 0.00017594289 -0.005325772
0000f0 7f 74 0e 3d e6 a9 63 bd 50 60 2c be 9b 11 a2 3b
       0.034779068 -0.05558195 -0.16833615 0.0049459464
000100 44 1d 5b 3b fd e7 53 ba 81 09 04 bd 90 74 ee bc
       0.0033434192 -0.000808358 -0.032235626 -0.029108316
000110 5c 34 1a bd 7b 94 3a bc e7 58 80 3b c5 a9 01 3d
       -0.03764759 -0.01138794 0.003916848 0.031656045
000120 b3 55 16 3d 14 b3 67 bc b4 41 26 3b 90 4c 03 be
       0.036702823 -0.014141817 0.0025368752 -0.12822175
000130 c0 e7 4b bd 8e 21 d6 3c 86 77 96 bd 49 01 81 bc
       -0.04978156 0.026139047 -0.07347016 -0.015747683
000140 1f 4b 9e 3d 0a 45 e4 3c 2d 13 2f bc 62 b0 10 3d
       0.07729172 0.027864952 -0.010685724 0.03532446
000150 ba 82 2a 3d 6f 87 77 3d 11 a9 5e bc 8f 15 04 3d
       0.041628577 0.060431894 -0.013590113 0.032247122
000160 5d a2 f9 bc 40 e9 ec bd c7 68 fd bc a2 a9 5e bd
       -0.030472929 -0.115679264 -0.03093375 -0.054360993
000170 63 49 4d bc 80 8d 5c bd 06 2d 97 bd c6 76 91 bc
       -0.012529704 -0.053845882 -0.073816344 -0.01775683
000180 60 56 ac 3c 9b 7d 5f bb 1c 45 e8 3c 51 06 21 bd
       0.02103728 -0.0034101966 0.028353266 -0.039312664
000190 2a 41 d7 bc 37 1a c4 bc 52 dc 8e bc c5 47 93 3c
       -0.02627619 -0.023938281 -0.017439041 0.017978558
0001a0 10 cd 19 3b e6 fa 3d 3c 4a 9a 6a 3c 97 67 20 3d
       0.0023468174 0.011595463 0.014319012 0.03916129
0001b0 50 dc 1e 3d 63 0a 2d 3d 6e cc ec 3c 68 ed b8 3c
       0.038784325 0.042246234 0.028906073 0.022574142
0001c0 2a 5e 53 3d 00 83 3f 3c f9 f9 53 bd 28 d8 05 bd
       0.051603474 0.011688948 -0.051752064 -0.032676846
0001d0 6d ab 89 3d ee 83 1a bd 44 70 24 3c ff e5 b8 bb
       0.0672215 -0.037723474 0.010036532 -0.005642652
0001e0 d5 e4 81 b9 22 6d a2 3c 69 67 75 3b 89 d8 bd ba
       -0.0002477529 0.01982743 0.003744567 -0.0014484088
0001f0 3a e4 4c bd 5b a9 cb bc 30 59 97 3d 9c ee 1f 3d
       -0.05002234 -0.024861028 0.07390058 0.039045915
000200 15 e4 ed 3a 44 d6 99 3d fd 45 b7 3c fa c3 a9 bb
       0.0018149639 0.07511571 0.02237224 -0.005180833
000210 b5 d8 aa 3d 96 76 06 3d 65 6a 6d bc 8a 25 2c bd
       0.08342115 0.032827936 -0.014490698 -0.042027988
000220 9d 9b b5 3b 18 17 f4 3b 16 f7 e0 bc 1a 9e 45 3c
       0.005542232 0.007449042 -0.02746157 0.01206162
000230 fa 6d 45 bc 2f a9 04 3d db af 5c bb 05 a8 9f bc
       -0.012050146 0.03238791 -0.0033674154 -0.019489298
000240 7f 76 71 3d 60 9c 67 bd a7 ae 78 ba 60 db b9 3d
       0.058950897 -0.056545615 -0.00094864744 0.090750456
000250 0e bd ee bc cf 15 ab bd e9 cd 89 3d 5f 65 69 b9
       -0.029142883 -0.08353769 0.06728727 -0.00022258375
000260 2d 2b 7c bd dc 6a cb bc c6 7f ca bc d0 b8 85 bc
       -0.061564613 -0.024831228 -0.02471913 -0.016323477
000270 59 67 37 bd 35 0e 47 bb 90 71 a1 bc 84 4d e9 bc
       -0.044776294 -0.0030373458 -0.019707471 -0.028479345
000280 36 e7 17 bc 37 d1 2d 3d 99 29 4f bb 4f e7 97 3c
       -0.009271434 0.04243585 -0.0031610487 0.018542914
000290 96 b6 4a bc 29 f3 8c 3c b3 de b1 bb a4 00 9c bc
       -0.012372633 0.017205792 -0.005428159 -0.019043274
0002a0 41 00 6b 3d 5c 9d 63 3c cc 43 73 bd f8 81 03 bc
       0.05737329 0.013892498 -0.059390828 -0.008026592
0002b0 7a 73 f2 3a 59 21 33 3c 12 cc 8d bd 60 0b 44 bc
       0.001849755 0.010933244 -0.06923689 -0.011965603
0002c0 35 f3 cb 3c 80 c2 70 bd de a1 2d 3c 58 4e 57 3d
       0.024896244 -0.05877924 0.010597674 0.05256495
0002d0 f4 75 8c bc 2e 78 a7 bb da 0f e5 3b 98 a8 4e 3c
       -0.017146088 -0.005110762 0.006990415 0.012613438
0002e0 c6 fd a2 3c 1d d7 79 bd 8b 82 49 3d b2 e4 0d 3d
       0.0198964 -0.060996164 0.04919676 0.03464193
0002f0 46 48 31 bd 49 c1 84 bc 57 ab 8c bc d4 bf dd bb
       -0.043281816 -0.016205447 -0.017171545 -0.0067672525
000300 70 b5 16 bc 6c fd 62 bc 9a 4b 27 bd 08 a0 e3 3c
       -0.0091985315 -0.013854366 -0.040843584 0.02778627
000310 c6 28 18 bc b3 fc ae bc 28 45 49 3d 7e 7e 03 3d
       -0.009287065 -0.02136073 0.04913822 0.032103054
000320 b8 d8 3b 3c ab 05 dd bc 25 47 da 3c b6 1c 93 3c
       0.011465244 -0.026980242 0.026645252 0.017958026
000330 96 b5 f4 bc 66 ed 59 bc 6b 65 37 3d 3e c5 65 3c
       -0.029871743 -0.013301229 0.044774454 0.014024077
000340 4b fc b5 bc fd 07 aa bb 51 d2 fc 3c 45 a3 32 bd
       -0.02221503 -0.0051889406 0.030862005 -0.043612737
000350 55 a3 09 bc f3 0c 15 3d d3 5c d1 bc 84 40 c3 bc
       -0.008400758 0.036389302 -0.025556957 -0.023834474
000360 02 9d e6 ba cf ea 82 3a 52 83 9e bc 3c 95 b9 bb
       -0.0017594399 0.0009988191 -0.019349728 -0.005663542
000370 dd 7c a4 bc 63 6a 27 bd e9 32 32 3d c5 13 41 3c
       -0.02007907 -0.040872943 0.043505583 0.011784499
000380 7a 4a cf bc 52 3c a8 bc 7c f1 e0 3c a4 e1 16 bd
       -0.025304068 -0.020536575 0.027458899 -0.03683628
000390 e1 12 02 3c 31 0e b0 3c 94 e5 27 3d ab 52 1c bd
       0.007939071 0.021491142 0.040990427 -0.038164776
0003a0 17 eb 94 3c 82 91 e8 3d d3 ce 62 3c 94 bd 8e bd
       0.018178506 0.113558784 0.013843256 -0.06969753
0003b0 f9 78 ea bc e1 ab fb 3c b3 92 39 bd a2 a3 ab bd
       -0.028622137 0.030721607 -0.04530592 -0.0838082
0003c0 ee 95 97 3d fb 43 e4 3c 68 b8 09 3d 74 d2 ee 3c
       0.07401644 0.027864447 0.03362313 0.029153086
0003d0 41 32 a5 3c 72 00 48 bb 01 36 7b bd 2a 8d 9e 3c
       0.020165564 -0.0030517844 -0.0613308 0.019354422
0003e0 cc 72 1c 3d 59 04 f3 bc 8a df 13 bc b3 24 8d 3d
       0.038195416 -0.029665159 -0.009025464 0.068917654
0003f0 3d 6e 00 bd b9 ed b0 bc c4 fd e2 bc 8b d7 29 bd
       -0.03135513 -0.02159773 -0.027708896 -0.041465323

onnx::Conv_36 f4 [64]
000000 ec 9a 67 be e8 01 51 be 70 80 33 bd 10 61 fc 3d
       -0.22617692 -0.20410883 -0.04382366 0.12323201
000010 44 53 01 3e 38 55 ec bd d0 f7 65 bd eb a9 ab be
       0.1262942 -0.11539692 -0.056144536 -0.33528075
000020 80 02 a3 be c7 88 9d be 84 48 1f 3e b7 7e c8 be
       -0.31837845 -0.30768415 0.15555006 -0.39159176
000030 e4 98 14 3e 2e 11 a6 be 4e 7d 30 3f bd 69 11 bf
       0.14511448 -0.32434982 0.689412 -0.5680197
000040 44 f1 26 be 28 76 d2 bd 78 10 96 3e 6a cc 97 be
       -0.16302973 -0.10276443 0.2930944 -0.29648143
000050 38 1f 23 3e fe e3 eb be f2 db af 3e f0 45 21 bd
       0.15929878 -0.46072382 0.34347492 -0.03937334
000060 d0 3c 52 3e c5 08 9c be 38 b8 28 bf 88 ad 14 3e
       0.2053101 -0.3047544 -0.65906096 0.14519322
000070 9c 0f 6c be 00 25 1c bb b7 17 87 bf 43 63 76 bf
       -0.2305283 -0.0023825765 -1.0554112 -0.9624521
000080 82 00 f6 3e b4 17 13 3e 31 05 9b be 60 77 13 bd
       0.48047262 0.14364511 -0.30277398 -0.036002517
000090 90 46 f8 3d 1d 61 a6 be 5e bd 24 be 45 d8 a8 be
       0.12122834 -0.32495967 -0.16087863 -0.329775
0000a0 80 fb 24 be b4 3f 7e 3e 04 a3 8b 3e e0 ad 0e bd
       -0.16111565 0.24828988 0.2727281 -0.03483379
0000b0 e7 ad 1a 3f e8 b2 8a 3d 34 ba 24 bf 88 48 17 be
       0.60421604 0.06772405 -0.64346623 -0.14773762
0000c0 50 19 29 bd b6 cf 65 be 7c 1a 91 be fa df 86 be
       -0.041283906 -0.22442517 -0.28340518 -0.26342756
0000d0 83 05 a3 3e 68 97 81 3d 4c 5e ee be 62 e3 22 be
       0.31840143 0.063277066 -0.46556318 -0.15907052
0000e0 90 7d da 3e 64 3d ec 3d 12 d9 25 bf 7c 5c cb be
       0.42673922 0.11535147 -0.6478435 -0.39718997
0000f0 4c 2f a7 3e 56 8c 62 be a9 0c 3b bf 60 de 37 bd
       0.32653272 -0.22123846 -0.7306619 -0.044889808
